node {
  name: "global_step/Initializer/zeros"
  op: "Const"
  attr {
    key: "_class"
    value {
      list {
        s: "loc:@global_step"
      }
    }
  }
  attr {
    key: "_output_shapes"
    value {
      list {
        shape {
        }
      }
    }
  }
  attr {
    key: "dtype"
    value {
      type: DT_INT64
    }
  }
  attr {
    key: "value"
    value {
      tensor {
        dtype: DT_INT64
        tensor_shape {
        }
        int64_val: 0
      }
    }
  }
}
node {
  name: "global_step"
  op: "VarHandleOp"
  attr {
    key: "_class"
    value {
      list {
        s: "loc:@global_step"
      }
    }
  }
  attr {
    key: "_output_shapes"
    value {
      list {
        shape {
        }
      }
    }
  }
  attr {
    key: "allowed_devices"
    value {
      list {
      }
    }
  }
  attr {
    key: "container"
    value {
      s: ""
    }
  }
  attr {
    key: "dtype"
    value {
      type: DT_INT64
    }
  }
  attr {
    key: "shape"
    value {
      shape {
      }
    }
  }
  attr {
    key: "shared_name"
    value {
      s: "global_step"
    }
  }
}
node {
  name: "global_step/IsInitialized/VarIsInitializedOp"
  op: "VarIsInitializedOp"
  input: "global_step"
  attr {
    key: "_output_shapes"
    value {
      list {
        shape {
        }
      }
    }
  }
}
node {
  name: "global_step/Assign"
  op: "AssignVariableOp"
  input: "global_step"
  input: "global_step/Initializer/zeros"
  attr {
    key: "dtype"
    value {
      type: DT_INT64
    }
  }
}
node {
  name: "global_step/Read/ReadVariableOp"
  op: "ReadVariableOp"
  input: "global_step"
  attr {
    key: "_output_shapes"
    value {
      list {
        shape {
        }
      }
    }
  }
  attr {
    key: "dtype"
    value {
      type: DT_INT64
    }
  }
}
node {
  name: "global_step/VarIsInitializedOp"
  op: "VarIsInitializedOp"
  input: "global_step"
  attr {
    key: "_output_shapes"
    value {
      list {
        shape {
        }
      }
    }
  }
}
node {
  name: "global_step/cond"
  op: "If"
  input: "global_step/VarIsInitializedOp"
  input: "global_step"
  input: "global_step/Initializer/zeros"
  attr {
    key: "Tcond"
    value {
      type: DT_BOOL
    }
  }
  attr {
    key: "Tin"
    value {
      list {
        type: DT_RESOURCE
        type: DT_INT64
      }
    }
  }
  attr {
    key: "Tout"
    value {
      list {
        type: DT_INT64
      }
    }
  }
  attr {
    key: "_lower_using_switch_merge"
    value {
      b: true
    }
  }
  attr {
    key: "_output_shapes"
    value {
      list {
        shape {
        }
      }
    }
  }
  attr {
    key: "_read_only_resource_inputs"
    value {
      list {
        i: 1
      }
    }
  }
  attr {
    key: "else_branch"
    value {
      func {
        name: "global_step_cond_false_7"
      }
    }
  }
  attr {
    key: "output_shapes"
    value {
      list {
        shape {
        }
      }
    }
  }
  attr {
    key: "then_branch"
    value {
      func {
        name: "global_step_cond_true_6"
      }
    }
  }
}
node {
  name: "global_step/cond/Identity"
  op: "Identity"
  input: "global_step/cond"
  attr {
    key: "T"
    value {
      type: DT_INT64
    }
  }
  attr {
    key: "_output_shapes"
    value {
      list {
        shape {
        }
      }
    }
  }
}
node {
  name: "global_step/add/y"
  op: "Const"
  attr {
    key: "_output_shapes"
    value {
      list {
        shape {
        }
      }
    }
  }
  attr {
    key: "dtype"
    value {
      type: DT_INT64
    }
  }
  attr {
    key: "value"
    value {
      tensor {
        dtype: DT_INT64
        tensor_shape {
        }
        int64_val: 0
      }
    }
  }
}
node {
  name: "global_step/add"
  op: "AddV2"
  input: "global_step/cond/Identity"
  input: "global_step/add/y"
  attr {
    key: "T"
    value {
      type: DT_INT64
    }
  }
  attr {
    key: "_output_shapes"
    value {
      list {
        shape {
        }
      }
    }
  }
}
node {
  name: "normalize_element/component_0"
  op: "Const"
  device: "/device:CPU:0"
  attr {
    key: "_output_shapes"
    value {
      list {
        shape {
        }
      }
    }
  }
  attr {
    key: "dtype"
    value {
      type: DT_INT32
    }
  }
  attr {
    key: "value"
    value {
      tensor {
        dtype: DT_INT32
        tensor_shape {
        }
        int_val: 0
      }
    }
  }
}
node {
  name: "TensorDataset"
  op: "TensorDataset"
  input: "normalize_element/component_0"
  device: "/device:CPU:0"
  attr {
    key: "Toutput_types"
    value {
      list {
        type: DT_INT32
      }
    }
  }
  attr {
    key: "_output_shapes"
    value {
      list {
        shape {
        }
      }
    }
  }
  attr {
    key: "output_shapes"
    value {
      list {
        shape {
        }
      }
    }
  }
}
node {
  name: "FlatMapDataset"
  op: "FlatMapDataset"
  input: "TensorDataset"
  device: "/device:CPU:0"
  attr {
    key: "Targuments"
    value {
      list {
      }
    }
  }
  attr {
    key: "_output_shapes"
    value {
      list {
        shape {
        }
      }
    }
  }
  attr {
    key: "f"
    value {
      func {
        name: "__inference_Dataset_flat_map_flat_map_fn_45"
        attr {
          key: "_tf_data_function"
          value {
            b: true
          }
        }
      }
    }
  }
  attr {
    key: "output_shapes"
    value {
      list {
        shape {
          dim {
            size: -1
          }
          dim {
            size: 3
          }
        }
        shape {
          dim {
            size: -1
          }
        }
        shape {
          dim {
            size: 3
          }
          dim {
            size: 3
          }
        }
      }
    }
  }
  attr {
    key: "output_types"
    value {
      list {
        type: DT_FLOAT
        type: DT_INT32
        type: DT_FLOAT
      }
    }
  }
}
node {
  name: "normalize_element_1/component_0"
  op: "Const"
  device: "/device:CPU:0"
  attr {
    key: "_output_shapes"
    value {
      list {
        shape {
        }
      }
    }
  }
  attr {
    key: "dtype"
    value {
      type: DT_INT32
    }
  }
  attr {
    key: "value"
    value {
      tensor {
        dtype: DT_INT32
        tensor_shape {
        }
        int_val: 0
      }
    }
  }
}
node {
  name: "TensorDataset_1"
  op: "TensorDataset"
  input: "normalize_element_1/component_0"
  device: "/device:CPU:0"
  attr {
    key: "Toutput_types"
    value {
      list {
        type: DT_INT32
      }
    }
  }
  attr {
    key: "_output_shapes"
    value {
      list {
        shape {
        }
      }
    }
  }
  attr {
    key: "output_shapes"
    value {
      list {
        shape {
        }
      }
    }
  }
}
node {
  name: "FlatMapDataset_1"
  op: "FlatMapDataset"
  input: "TensorDataset_1"
  device: "/device:CPU:0"
  attr {
    key: "Targuments"
    value {
      list {
      }
    }
  }
  attr {
    key: "_output_shapes"
    value {
      list {
        shape {
        }
      }
    }
  }
  attr {
    key: "f"
    value {
      func {
        name: "__inference_Dataset_flat_map_flat_map_fn_72"
        attr {
          key: "_tf_data_function"
          value {
            b: true
          }
        }
      }
    }
  }
  attr {
    key: "output_shapes"
    value {
      list {
        shape {
          dim {
            size: -1
          }
          dim {
            size: 3
          }
        }
        shape {
          dim {
            size: -1
          }
        }
        shape {
          dim {
            size: 3
          }
          dim {
            size: 3
          }
        }
      }
    }
  }
  attr {
    key: "output_types"
    value {
      list {
        type: DT_FLOAT
        type: DT_INT32
        type: DT_FLOAT
      }
    }
  }
}
node {
  name: "FilterDataset"
  op: "FilterDataset"
  input: "FlatMapDataset"
  device: "/device:CPU:0"
  attr {
    key: "Targuments"
    value {
      list {
      }
    }
  }
  attr {
    key: "_output_shapes"
    value {
      list {
        shape {
        }
      }
    }
  }
  attr {
    key: "output_shapes"
    value {
      list {
        shape {
          dim {
            size: -1
          }
          dim {
            size: 3
          }
        }
        shape {
          dim {
            size: -1
          }
        }
        shape {
          dim {
            size: 3
          }
          dim {
            size: 3
          }
        }
      }
    }
  }
  attr {
    key: "output_types"
    value {
      list {
        type: DT_FLOAT
        type: DT_INT32
        type: DT_FLOAT
      }
    }
  }
  attr {
    key: "predicate"
    value {
      func {
        name: "__inference_Dataset_filter_lambda_81"
        attr {
          key: "_tf_data_function"
          value {
            b: true
          }
        }
      }
    }
  }
}
node {
  name: "batch_size"
  op: "Const"
  device: "/device:CPU:0"
  attr {
    key: "_output_shapes"
    value {
      list {
        shape {
        }
      }
    }
  }
  attr {
    key: "dtype"
    value {
      type: DT_INT64
    }
  }
  attr {
    key: "value"
    value {
      tensor {
        dtype: DT_INT64
        tensor_shape {
        }
        int64_val: 30
      }
    }
  }
}
node {
  name: "Const"
  op: "Const"
  device: "/device:CPU:0"
  attr {
    key: "_output_shapes"
    value {
      list {
        shape {
          dim {
            size: 2
          }
        }
      }
    }
  }
  attr {
    key: "dtype"
    value {
      type: DT_INT64
    }
  }
  attr {
    key: "value"
    value {
      tensor {
        dtype: DT_INT64
        tensor_shape {
          dim {
            size: 2
          }
        }
        tensor_content: "\377\377\377\377\377\377\377\377\003\000\000\000\000\000\000\000"
      }
    }
  }
}
node {
  name: "Const_1"
  op: "Const"
  device: "/device:CPU:0"
  attr {
    key: "_output_shapes"
    value {
      list {
        shape {
          dim {
            size: 1
          }
        }
      }
    }
  }
  attr {
    key: "dtype"
    value {
      type: DT_INT64
    }
  }
  attr {
    key: "value"
    value {
      tensor {
        dtype: DT_INT64
        tensor_shape {
          dim {
            size: 1
          }
        }
        int64_val: -1
      }
    }
  }
}
node {
  name: "Const_2"
  op: "Const"
  device: "/device:CPU:0"
  attr {
    key: "_output_shapes"
    value {
      list {
        shape {
          dim {
            size: 2
          }
        }
      }
    }
  }
  attr {
    key: "dtype"
    value {
      type: DT_INT64
    }
  }
  attr {
    key: "value"
    value {
      tensor {
        dtype: DT_INT64
        tensor_shape {
          dim {
            size: 2
          }
        }
        tensor_content: "\003\000\000\000\000\000\000\000\003\000\000\000\000\000\000\000"
      }
    }
  }
}
node {
  name: "padding_value"
  op: "Const"
  device: "/device:CPU:0"
  attr {
    key: "_output_shapes"
    value {
      list {
        shape {
        }
      }
    }
  }
  attr {
    key: "dtype"
    value {
      type: DT_FLOAT
    }
  }
  attr {
    key: "value"
    value {
      tensor {
        dtype: DT_FLOAT
        tensor_shape {
        }
        float_val: 0.0
      }
    }
  }
}
node {
  name: "padding_value_1"
  op: "Const"
  device: "/device:CPU:0"
  attr {
    key: "_output_shapes"
    value {
      list {
        shape {
        }
      }
    }
  }
  attr {
    key: "dtype"
    value {
      type: DT_INT32
    }
  }
  attr {
    key: "value"
    value {
      tensor {
        dtype: DT_INT32
        tensor_shape {
        }
        int_val: 0
      }
    }
  }
}
node {
  name: "padding_value_2"
  op: "Const"
  device: "/device:CPU:0"
  attr {
    key: "_output_shapes"
    value {
      list {
        shape {
        }
      }
    }
  }
  attr {
    key: "dtype"
    value {
      type: DT_FLOAT
    }
  }
  attr {
    key: "value"
    value {
      tensor {
        dtype: DT_FLOAT
        tensor_shape {
        }
        float_val: 0.0
      }
    }
  }
}
node {
  name: "drop_remainder"
  op: "Const"
  device: "/device:CPU:0"
  attr {
    key: "_output_shapes"
    value {
      list {
        shape {
        }
      }
    }
  }
  attr {
    key: "dtype"
    value {
      type: DT_BOOL
    }
  }
  attr {
    key: "value"
    value {
      tensor {
        dtype: DT_BOOL
        tensor_shape {
        }
        bool_val: false
      }
    }
  }
}
node {
  name: "PaddedBatchDatasetV2"
  op: "PaddedBatchDatasetV2"
  input: "FilterDataset"
  input: "batch_size"
  input: "Const"
  input: "Const_1"
  input: "Const_2"
  input: "padding_value"
  input: "padding_value_1"
  input: "padding_value_2"
  input: "drop_remainder"
  device: "/device:CPU:0"
  attr {
    key: "N"
    value {
      i: 3
    }
  }
  attr {
    key: "Toutput_types"
    value {
      list {
        type: DT_FLOAT
        type: DT_INT32
        type: DT_FLOAT
      }
    }
  }
  attr {
    key: "_output_shapes"
    value {
      list {
        shape {
        }
      }
    }
  }
  attr {
    key: "output_shapes"
    value {
      list {
        shape {
          dim {
            size: -1
          }
          dim {
            size: -1
          }
          dim {
            size: 3
          }
        }
        shape {
          dim {
            size: -1
          }
          dim {
            size: -1
          }
        }
        shape {
          dim {
            size: -1
          }
          dim {
            size: 3
          }
          dim {
            size: 3
          }
        }
      }
    }
  }
  attr {
    key: "parallel_copy"
    value {
      b: false
    }
  }
}
node {
  name: "num_parallel_calls"
  op: "Const"
  device: "/device:CPU:0"
  attr {
    key: "_output_shapes"
    value {
      list {
        shape {
        }
      }
    }
  }
  attr {
    key: "dtype"
    value {
      type: DT_INT64
    }
  }
  attr {
    key: "value"
    value {
      tensor {
        dtype: DT_INT64
        tensor_shape {
        }
        int64_val: 8
      }
    }
  }
}
node {
  name: "ParallelMapDatasetV2"
  op: "ParallelMapDatasetV2"
  input: "PaddedBatchDatasetV2"
  input: "num_parallel_calls"
  device: "/device:CPU:0"
  attr {
    key: "Targuments"
    value {
      list {
      }
    }
  }
  attr {
    key: "_output_shapes"
    value {
      list {
        shape {
        }
      }
    }
  }
  attr {
    key: "deterministic"
    value {
      s: "default"
    }
  }
  attr {
    key: "f"
    value {
      func {
        name: "__inference_Dataset_map_sparsify_115"
        attr {
          key: "_tf_data_function"
          value {
            b: true
          }
        }
      }
    }
  }
  attr {
    key: "output_shapes"
    value {
      list {
        shape {
          dim {
            size: -1
          }
          dim {
            size: 3
          }
        }
        shape {
          dim {
            size: -1
          }
        }
        shape {
          dim {
            size: -1
          }
          dim {
            size: 1
          }
        }
        shape {
          dim {
            size: -1
          }
          dim {
            size: 3
          }
          dim {
            size: 3
          }
        }
      }
    }
  }
  attr {
    key: "output_types"
    value {
      list {
        type: DT_FLOAT
        type: DT_INT32
        type: DT_INT32
        type: DT_FLOAT
      }
    }
  }
  attr {
    key: "preserve_cardinality"
    value {
      b: true
    }
  }
  attr {
    key: "use_inter_op_parallelism"
    value {
      b: true
    }
  }
}
node {
  name: "MapDataset"
  op: "MapDataset"
  input: "ParallelMapDatasetV2"
  device: "/device:CPU:0"
  attr {
    key: "Targuments"
    value {
      list {
      }
    }
  }
  attr {
    key: "_output_shapes"
    value {
      list {
        shape {
        }
      }
    }
  }
  attr {
    key: "f"
    value {
      func {
        name: "__inference_Dataset_map_pre_fn_337"
        attr {
          key: "_tf_data_function"
          value {
            b: true
          }
        }
      }
    }
  }
  attr {
    key: "output_shapes"
    value {
      list {
        shape {
          dim {
            size: -1
          }
          dim {
            size: 3
          }
        }
        shape {
          dim {
            size: -1
          }
          dim {
            size: 3
          }
        }
        shape {
          dim {
            size: -1
          }
        }
        shape {
          dim {
            size: -1
          }
        }
        shape {
          dim {
            size: -1
          }
          dim {
            size: 1
          }
        }
        shape {
          dim {
            size: -1
          }
          dim {
            size: 2
          }
        }
        shape {
          dim {
            size: -1
          }
          dim {
            size: 6
          }
        }
        shape {
          dim {
            size: -1
          }
          dim {
            size: 3
          }
          dim {
            size: 3
          }
        }
      }
    }
  }
  attr {
    key: "output_types"
    value {
      list {
        type: DT_FLOAT
        type: DT_FLOAT
        type: DT_FLOAT
        type: DT_INT32
        type: DT_INT32
        type: DT_INT32
        type: DT_FLOAT
        type: DT_FLOAT
      }
    }
  }
  attr {
    key: "preserve_cardinality"
    value {
      b: true
    }
  }
  attr {
    key: "use_inter_op_parallelism"
    value {
      b: true
    }
  }
}
node {
  name: "filename"
  op: "Const"
  device: "/device:CPU:0"
  attr {
    key: "_output_shapes"
    value {
      list {
        shape {
        }
      }
    }
  }
  attr {
    key: "dtype"
    value {
      type: DT_STRING
    }
  }
  attr {
    key: "value"
    value {
      tensor {
        dtype: DT_STRING
        tensor_shape {
        }
        string_val: ""
      }
    }
  }
}
node {
  name: "CacheDataset"
  op: "CacheDataset"
  input: "MapDataset"
  input: "filename"
  device: "/device:CPU:0"
  attr {
    key: "_output_shapes"
    value {
      list {
        shape {
        }
      }
    }
  }
  attr {
    key: "output_shapes"
    value {
      list {
        shape {
          dim {
            size: -1
          }
          dim {
            size: 3
          }
        }
        shape {
          dim {
            size: -1
          }
          dim {
            size: 3
          }
        }
        shape {
          dim {
            size: -1
          }
        }
        shape {
          dim {
            size: -1
          }
        }
        shape {
          dim {
            size: -1
          }
          dim {
            size: 1
          }
        }
        shape {
          dim {
            size: -1
          }
          dim {
            size: 2
          }
        }
        shape {
          dim {
            size: -1
          }
          dim {
            size: 6
          }
        }
        shape {
          dim {
            size: -1
          }
          dim {
            size: 3
          }
          dim {
            size: 3
          }
        }
      }
    }
  }
  attr {
    key: "output_types"
    value {
      list {
        type: DT_FLOAT
        type: DT_FLOAT
        type: DT_FLOAT
        type: DT_INT32
        type: DT_INT32
        type: DT_INT32
        type: DT_FLOAT
        type: DT_FLOAT
      }
    }
  }
}
node {
  name: "count"
  op: "Const"
  device: "/device:CPU:0"
  attr {
    key: "_output_shapes"
    value {
      list {
        shape {
        }
      }
    }
  }
  attr {
    key: "dtype"
    value {
      type: DT_INT64
    }
  }
  attr {
    key: "value"
    value {
      tensor {
        dtype: DT_INT64
        tensor_shape {
        }
        int64_val: -1
      }
    }
  }
}
node {
  name: "RepeatDataset"
  op: "RepeatDataset"
  input: "CacheDataset"
  input: "count"
  device: "/device:CPU:0"
  attr {
    key: "_output_shapes"
    value {
      list {
        shape {
        }
      }
    }
  }
  attr {
    key: "output_shapes"
    value {
      list {
        shape {
          dim {
            size: -1
          }
          dim {
            size: 3
          }
        }
        shape {
          dim {
            size: -1
          }
          dim {
            size: 3
          }
        }
        shape {
          dim {
            size: -1
          }
        }
        shape {
          dim {
            size: -1
          }
        }
        shape {
          dim {
            size: -1
          }
          dim {
            size: 1
          }
        }
        shape {
          dim {
            size: -1
          }
          dim {
            size: 2
          }
        }
        shape {
          dim {
            size: -1
          }
          dim {
            size: 6
          }
        }
        shape {
          dim {
            size: -1
          }
          dim {
            size: 3
          }
          dim {
            size: 3
          }
        }
      }
    }
  }
  attr {
    key: "output_types"
    value {
      list {
        type: DT_FLOAT
        type: DT_FLOAT
        type: DT_FLOAT
        type: DT_INT32
        type: DT_INT32
        type: DT_INT32
        type: DT_FLOAT
        type: DT_FLOAT
      }
    }
  }
}
node {
  name: "buffer_size"
  op: "Const"
  device: "/device:CPU:0"
  attr {
    key: "_output_shapes"
    value {
      list {
        shape {
        }
      }
    }
  }
  attr {
    key: "dtype"
    value {
      type: DT_INT64
    }
  }
  attr {
    key: "value"
    value {
      tensor {
        dtype: DT_INT64
        tensor_shape {
        }
        int64_val: 1000
      }
    }
  }
}
node {
  name: "seed"
  op: "Const"
  device: "/device:CPU:0"
  attr {
    key: "_output_shapes"
    value {
      list {
        shape {
        }
      }
    }
  }
  attr {
    key: "dtype"
    value {
      type: DT_INT64
    }
  }
  attr {
    key: "value"
    value {
      tensor {
        dtype: DT_INT64
        tensor_shape {
        }
        int64_val: 0
      }
    }
  }
}
node {
  name: "seed2"
  op: "Const"
  device: "/device:CPU:0"
  attr {
    key: "_output_shapes"
    value {
      list {
        shape {
        }
      }
    }
  }
  attr {
    key: "dtype"
    value {
      type: DT_INT64
    }
  }
  attr {
    key: "value"
    value {
      tensor {
        dtype: DT_INT64
        tensor_shape {
        }
        int64_val: 0
      }
    }
  }
}
node {
  name: "ShuffleDataset"
  op: "ShuffleDataset"
  input: "RepeatDataset"
  input: "buffer_size"
  input: "seed"
  input: "seed2"
  device: "/device:CPU:0"
  attr {
    key: "_output_shapes"
    value {
      list {
        shape {
        }
      }
    }
  }
  attr {
    key: "output_shapes"
    value {
      list {
        shape {
          dim {
            size: -1
          }
          dim {
            size: 3
          }
        }
        shape {
          dim {
            size: -1
          }
          dim {
            size: 3
          }
        }
        shape {
          dim {
            size: -1
          }
        }
        shape {
          dim {
            size: -1
          }
        }
        shape {
          dim {
            size: -1
          }
          dim {
            size: 1
          }
        }
        shape {
          dim {
            size: -1
          }
          dim {
            size: 2
          }
        }
        shape {
          dim {
            size: -1
          }
          dim {
            size: 6
          }
        }
        shape {
          dim {
            size: -1
          }
          dim {
            size: 3
          }
          dim {
            size: 3
          }
        }
      }
    }
  }
  attr {
    key: "output_types"
    value {
      list {
        type: DT_FLOAT
        type: DT_FLOAT
        type: DT_FLOAT
        type: DT_INT32
        type: DT_INT32
        type: DT_INT32
        type: DT_FLOAT
        type: DT_FLOAT
      }
    }
  }
  attr {
    key: "reshuffle_each_iteration"
    value {
      b: true
    }
  }
}
node {
  name: "ModelDataset"
  op: "ModelDataset"
  input: "ShuffleDataset"
  attr {
    key: "_output_shapes"
    value {
      list {
        shape {
        }
      }
    }
  }
  attr {
    key: "algorithm"
    value {
      i: 0
    }
  }
  attr {
    key: "cpu_budget"
    value {
      i: 0
    }
  }
  attr {
    key: "output_shapes"
    value {
      list {
        shape {
          dim {
            size: -1
          }
          dim {
            size: 3
          }
        }
        shape {
          dim {
            size: -1
          }
          dim {
            size: 3
          }
        }
        shape {
          dim {
            size: -1
          }
        }
        shape {
          dim {
            size: -1
          }
        }
        shape {
          dim {
            size: -1
          }
          dim {
            size: 1
          }
        }
        shape {
          dim {
            size: -1
          }
          dim {
            size: 2
          }
        }
        shape {
          dim {
            size: -1
          }
          dim {
            size: 6
          }
        }
        shape {
          dim {
            size: -1
          }
          dim {
            size: 3
          }
          dim {
            size: 3
          }
        }
      }
    }
  }
  attr {
    key: "output_types"
    value {
      list {
        type: DT_FLOAT
        type: DT_FLOAT
        type: DT_FLOAT
        type: DT_INT32
        type: DT_INT32
        type: DT_INT32
        type: DT_FLOAT
        type: DT_FLOAT
      }
    }
  }
  attr {
    key: "ram_budget"
    value {
      i: 0
    }
  }
}
node {
  name: "optimizations_enabled"
  op: "Const"
  attr {
    key: "_output_shapes"
    value {
      list {
        shape {
          dim {
          }
        }
      }
    }
  }
  attr {
    key: "dtype"
    value {
      type: DT_STRING
    }
  }
  attr {
    key: "value"
    value {
      tensor {
        dtype: DT_STRING
        tensor_shape {
          dim {
          }
        }
      }
    }
  }
}
node {
  name: "optimizations_disabled"
  op: "Const"
  attr {
    key: "_output_shapes"
    value {
      list {
        shape {
          dim {
          }
        }
      }
    }
  }
  attr {
    key: "dtype"
    value {
      type: DT_STRING
    }
  }
  attr {
    key: "value"
    value {
      tensor {
        dtype: DT_STRING
        tensor_shape {
          dim {
          }
        }
      }
    }
  }
}
node {
  name: "optimizations_default"
  op: "Const"
  attr {
    key: "_output_shapes"
    value {
      list {
        shape {
          dim {
            size: 4
          }
        }
      }
    }
  }
  attr {
    key: "dtype"
    value {
      type: DT_STRING
    }
  }
  attr {
    key: "value"
    value {
      tensor {
        dtype: DT_STRING
        tensor_shape {
          dim {
            size: 4
          }
        }
        string_val: "map_and_batch_fusion"
        string_val: "map_parallelization"
        string_val: "noop_elimination"
        string_val: "shuffle_and_repeat_fusion"
      }
    }
  }
}
node {
  name: "OptimizeDatasetV2"
  op: "OptimizeDatasetV2"
  input: "ModelDataset"
  input: "optimizations_enabled"
  input: "optimizations_disabled"
  input: "optimizations_default"
  attr {
    key: "_output_shapes"
    value {
      list {
        shape {
        }
      }
    }
  }
  attr {
    key: "optimization_configs"
    value {
      list {
        s: "autotune_buffer_sizes:autotune:true"
        s: "batch_parallelization:autotune:true"
        s: "disable_prefetch_legacy_autotune:autotune:true"
        s: "enable_gradient_descent:autotune:true"
        s: "map_parallelization:autotune:true"
      }
    }
  }
  attr {
    key: "output_shapes"
    value {
      list {
        shape {
          dim {
            size: -1
          }
          dim {
            size: 3
          }
        }
        shape {
          dim {
            size: -1
          }
          dim {
            size: 3
          }
        }
        shape {
          dim {
            size: -1
          }
        }
        shape {
          dim {
            size: -1
          }
        }
        shape {
          dim {
            size: -1
          }
          dim {
            size: 1
          }
        }
        shape {
          dim {
            size: -1
          }
          dim {
            size: 2
          }
        }
        shape {
          dim {
            size: -1
          }
          dim {
            size: 6
          }
        }
        shape {
          dim {
            size: -1
          }
          dim {
            size: 3
          }
          dim {
            size: 3
          }
        }
      }
    }
  }
  attr {
    key: "output_types"
    value {
      list {
        type: DT_FLOAT
        type: DT_FLOAT
        type: DT_FLOAT
        type: DT_INT32
        type: DT_INT32
        type: DT_INT32
        type: DT_FLOAT
        type: DT_FLOAT
      }
    }
  }
}
node {
  name: "IteratorV2"
  op: "IteratorV2"
  device: "/device:CPU:0"
  attr {
    key: "_class"
    value {
      list {
        s: "loc:@ShuffleDataset"
      }
    }
  }
  attr {
    key: "_output_shapes"
    value {
      list {
        shape {
        }
      }
    }
  }
  attr {
    key: "container"
    value {
      s: ""
    }
  }
  attr {
    key: "output_shapes"
    value {
      list {
        shape {
          dim {
            size: -1
          }
          dim {
            size: 3
          }
        }
        shape {
          dim {
            size: -1
          }
          dim {
            size: 3
          }
        }
        shape {
          dim {
            size: -1
          }
        }
        shape {
          dim {
            size: -1
          }
        }
        shape {
          dim {
            size: -1
          }
          dim {
            size: 1
          }
        }
        shape {
          dim {
            size: -1
          }
          dim {
            size: 2
          }
        }
        shape {
          dim {
            size: -1
          }
          dim {
            size: 6
          }
        }
        shape {
          dim {
            size: -1
          }
          dim {
            size: 3
          }
          dim {
            size: 3
          }
        }
      }
    }
  }
  attr {
    key: "output_types"
    value {
      list {
        type: DT_FLOAT
        type: DT_FLOAT
        type: DT_FLOAT
        type: DT_INT32
        type: DT_INT32
        type: DT_INT32
        type: DT_FLOAT
        type: DT_FLOAT
      }
    }
  }
  attr {
    key: "shared_name"
    value {
      s: ""
    }
  }
}
node {
  name: "MakeIterator"
  op: "MakeIterator"
  input: "OptimizeDatasetV2"
  input: "IteratorV2"
  device: "/device:CPU:0"
  attr {
    key: "_class"
    value {
      list {
        s: "loc:@ShuffleDataset"
      }
    }
  }
}
node {
  name: "IteratorToStringHandle"
  op: "IteratorToStringHandle"
  input: "IteratorV2"
  device: "/device:CPU:0"
  attr {
    key: "_class"
    value {
      list {
        s: "loc:@ShuffleDataset"
      }
    }
  }
  attr {
    key: "_output_shapes"
    value {
      list {
        shape {
        }
      }
    }
  }
}
node {
  name: "IteratorGetNext"
  op: "IteratorGetNext"
  input: "IteratorV2"
  device: "/device:CPU:0"
  attr {
    key: "_class"
    value {
      list {
        s: "loc:@ShuffleDataset"
      }
    }
  }
  attr {
    key: "_output_shapes"
    value {
      list {
        shape {
          dim {
            size: -1
          }
          dim {
            size: 3
          }
        }
        shape {
          dim {
            size: -1
          }
          dim {
            size: 3
          }
        }
        shape {
          dim {
            size: -1
          }
        }
        shape {
          dim {
            size: -1
          }
        }
        shape {
          dim {
            size: -1
          }
          dim {
            size: 1
          }
        }
        shape {
          dim {
            size: -1
          }
          dim {
            size: 2
          }
        }
        shape {
          dim {
            size: -1
          }
          dim {
            size: 6
          }
        }
        shape {
          dim {
            size: -1
          }
          dim {
            size: 3
          }
          dim {
            size: 3
          }
        }
      }
    }
  }
  attr {
    key: "output_shapes"
    value {
      list {
        shape {
          dim {
            size: -1
          }
          dim {
            size: 3
          }
        }
        shape {
          dim {
            size: -1
          }
          dim {
            size: 3
          }
        }
        shape {
          dim {
            size: -1
          }
        }
        shape {
          dim {
            size: -1
          }
        }
        shape {
          dim {
            size: -1
          }
          dim {
            size: 1
          }
        }
        shape {
          dim {
            size: -1
          }
          dim {
            size: 2
          }
        }
        shape {
          dim {
            size: -1
          }
          dim {
            size: 6
          }
        }
        shape {
          dim {
            size: -1
          }
          dim {
            size: 3
          }
          dim {
            size: 3
          }
        }
      }
    }
  }
  attr {
    key: "output_types"
    value {
      list {
        type: DT_FLOAT
        type: DT_FLOAT
        type: DT_FLOAT
        type: DT_INT32
        type: DT_INT32
        type: DT_INT32
        type: DT_FLOAT
        type: DT_FLOAT
      }
    }
  }
}
node {
  name: "preprocess_layer/Shape"
  op: "Shape"
  input: "IteratorGetNext:3"
  attr {
    key: "T"
    value {
      type: DT_INT32
    }
  }
  attr {
    key: "_output_shapes"
    value {
      list {
        shape {
          dim {
            size: 1
          }
        }
      }
    }
  }
  attr {
    key: "out_type"
    value {
      type: DT_INT32
    }
  }
}
node {
  name: "preprocess_layer/strided_slice/stack"
  op: "Const"
  attr {
    key: "_output_shapes"
    value {
      list {
        shape {
          dim {
            size: 1
          }
        }
      }
    }
  }
  attr {
    key: "dtype"
    value {
      type: DT_INT32
    }
  }
  attr {
    key: "value"
    value {
      tensor {
        dtype: DT_INT32
        tensor_shape {
          dim {
            size: 1
          }
        }
        int_val: 0
      }
    }
  }
}
node {
  name: "preprocess_layer/strided_slice/stack_1"
  op: "Const"
  attr {
    key: "_output_shapes"
    value {
      list {
        shape {
          dim {
            size: 1
          }
        }
      }
    }
  }
  attr {
    key: "dtype"
    value {
      type: DT_INT32
    }
  }
  attr {
    key: "value"
    value {
      tensor {
        dtype: DT_INT32
        tensor_shape {
          dim {
            size: 1
          }
        }
        int_val: 1
      }
    }
  }
}
node {
  name: "preprocess_layer/strided_slice/stack_2"
  op: "Const"
  attr {
    key: "_output_shapes"
    value {
      list {
        shape {
          dim {
            size: 1
          }
        }
      }
    }
  }
  attr {
    key: "dtype"
    value {
      type: DT_INT32
    }
  }
  attr {
    key: "value"
    value {
      tensor {
        dtype: DT_INT32
        tensor_shape {
          dim {
            size: 1
          }
        }
        int_val: 1
      }
    }
  }
}
node {
  name: "preprocess_layer/strided_slice"
  op: "StridedSlice"
  input: "preprocess_layer/Shape"
  input: "preprocess_layer/strided_slice/stack"
  input: "preprocess_layer/strided_slice/stack_1"
  input: "preprocess_layer/strided_slice/stack_2"
  attr {
    key: "Index"
    value {
      type: DT_INT32
    }
  }
  attr {
    key: "T"
    value {
      type: DT_INT32
    }
  }
  attr {
    key: "_output_shapes"
    value {
      list {
        shape {
          dim {
            size: 1
          }
        }
      }
    }
  }
  attr {
    key: "begin_mask"
    value {
      i: 1
    }
  }
  attr {
    key: "ellipsis_mask"
    value {
      i: 0
    }
  }
  attr {
    key: "end_mask"
    value {
      i: 0
    }
  }
  attr {
    key: "new_axis_mask"
    value {
      i: 0
    }
  }
  attr {
    key: "shrink_axis_mask"
    value {
      i: 0
    }
  }
}
node {
  name: "preprocess_layer/Reshape"
  op: "Reshape"
  input: "IteratorGetNext:3"
  input: "preprocess_layer/strided_slice"
  attr {
    key: "T"
    value {
      type: DT_INT32
    }
  }
  attr {
    key: "Tshape"
    value {
      type: DT_INT32
    }
  }
  attr {
    key: "_output_shapes"
    value {
      list {
        shape {
          dim {
            size: -1
          }
        }
      }
    }
  }
}
node {
  name: "preprocess_layer/Shape_1"
  op: "Shape"
  input: "IteratorGetNext:2"
  attr {
    key: "T"
    value {
      type: DT_FLOAT
    }
  }
  attr {
    key: "_output_shapes"
    value {
      list {
        shape {
          dim {
            size: 1
          }
        }
      }
    }
  }
  attr {
    key: "out_type"
    value {
      type: DT_INT32
    }
  }
}
node {
  name: "preprocess_layer/strided_slice_1/stack"
  op: "Const"
  attr {
    key: "_output_shapes"
    value {
      list {
        shape {
          dim {
            size: 1
          }
        }
      }
    }
  }
  attr {
    key: "dtype"
    value {
      type: DT_INT32
    }
  }
  attr {
    key: "value"
    value {
      tensor {
        dtype: DT_INT32
        tensor_shape {
          dim {
            size: 1
          }
        }
        int_val: 0
      }
    }
  }
}
node {
  name: "preprocess_layer/strided_slice_1/stack_1"
  op: "Const"
  attr {
    key: "_output_shapes"
    value {
      list {
        shape {
          dim {
            size: 1
          }
        }
      }
    }
  }
  attr {
    key: "dtype"
    value {
      type: DT_INT32
    }
  }
  attr {
    key: "value"
    value {
      tensor {
        dtype: DT_INT32
        tensor_shape {
          dim {
            size: 1
          }
        }
        int_val: 1
      }
    }
  }
}
node {
  name: "preprocess_layer/strided_slice_1/stack_2"
  op: "Const"
  attr {
    key: "_output_shapes"
    value {
      list {
        shape {
          dim {
            size: 1
          }
        }
      }
    }
  }
  attr {
    key: "dtype"
    value {
      type: DT_INT32
    }
  }
  attr {
    key: "value"
    value {
      tensor {
        dtype: DT_INT32
        tensor_shape {
          dim {
            size: 1
          }
        }
        int_val: 1
      }
    }
  }
}
node {
  name: "preprocess_layer/strided_slice_1"
  op: "StridedSlice"
  input: "preprocess_layer/Shape_1"
  input: "preprocess_layer/strided_slice_1/stack"
  input: "preprocess_layer/strided_slice_1/stack_1"
  input: "preprocess_layer/strided_slice_1/stack_2"
  attr {
    key: "Index"
    value {
      type: DT_INT32
    }
  }
  attr {
    key: "T"
    value {
      type: DT_INT32
    }
  }
  attr {
    key: "_output_shapes"
    value {
      list {
        shape {
          dim {
            size: 1
          }
        }
      }
    }
  }
  attr {
    key: "begin_mask"
    value {
      i: 1
    }
  }
  attr {
    key: "ellipsis_mask"
    value {
      i: 0
    }
  }
  attr {
    key: "end_mask"
    value {
      i: 0
    }
  }
  attr {
    key: "new_axis_mask"
    value {
      i: 0
    }
  }
  attr {
    key: "shrink_axis_mask"
    value {
      i: 0
    }
  }
}
node {
  name: "preprocess_layer/Reshape_1"
  op: "Reshape"
  input: "IteratorGetNext:2"
  input: "preprocess_layer/strided_slice_1"
  attr {
    key: "T"
    value {
      type: DT_FLOAT
    }
  }
  attr {
    key: "Tshape"
    value {
      type: DT_INT32
    }
  }
  attr {
    key: "_output_shapes"
    value {
      list {
        shape {
          dim {
            size: -1
          }
        }
      }
    }
  }
}
node {
  name: "pi_net_inter/preprocess_layer/Shape"
  op: "Shape"
  input: "preprocess_layer/Reshape"
  attr {
    key: "T"
    value {
      type: DT_INT32
    }
  }
  attr {
    key: "_output_shapes"
    value {
      list {
        shape {
          dim {
            size: 1
          }
        }
      }
    }
  }
  attr {
    key: "out_type"
    value {
      type: DT_INT32
    }
  }
}
node {
  name: "pi_net_inter/preprocess_layer/strided_slice/stack"
  op: "Const"
  attr {
    key: "_output_shapes"
    value {
      list {
        shape {
          dim {
            size: 1
          }
        }
      }
    }
  }
  attr {
    key: "dtype"
    value {
      type: DT_INT32
    }
  }
  attr {
    key: "value"
    value {
      tensor {
        dtype: DT_INT32
        tensor_shape {
          dim {
            size: 1
          }
        }
        int_val: 0
      }
    }
  }
}
node {
  name: "pi_net_inter/preprocess_layer/strided_slice/stack_1"
  op: "Const"
  attr {
    key: "_output_shapes"
    value {
      list {
        shape {
          dim {
            size: 1
          }
        }
      }
    }
  }
  attr {
    key: "dtype"
    value {
      type: DT_INT32
    }
  }
  attr {
    key: "value"
    value {
      tensor {
        dtype: DT_INT32
        tensor_shape {
          dim {
            size: 1
          }
        }
        int_val: 1
      }
    }
  }
}
node {
  name: "pi_net_inter/preprocess_layer/strided_slice/stack_2"
  op: "Const"
  attr {
    key: "_output_shapes"
    value {
      list {
        shape {
          dim {
            size: 1
          }
        }
      }
    }
  }
  attr {
    key: "dtype"
    value {
      type: DT_INT32
    }
  }
  attr {
    key: "value"
    value {
      tensor {
        dtype: DT_INT32
        tensor_shape {
          dim {
            size: 1
          }
        }
        int_val: 1
      }
    }
  }
}
node {
  name: "pi_net_inter/preprocess_layer/strided_slice"
  op: "StridedSlice"
  input: "pi_net_inter/preprocess_layer/Shape"
  input: "pi_net_inter/preprocess_layer/strided_slice/stack"
  input: "pi_net_inter/preprocess_layer/strided_slice/stack_1"
  input: "pi_net_inter/preprocess_layer/strided_slice/stack_2"
  attr {
    key: "Index"
    value {
      type: DT_INT32
    }
  }
  attr {
    key: "T"
    value {
      type: DT_INT32
    }
  }
  attr {
    key: "_output_shapes"
    value {
      list {
        shape {
          dim {
            size: 1
          }
        }
      }
    }
  }
  attr {
    key: "begin_mask"
    value {
      i: 1
    }
  }
  attr {
    key: "ellipsis_mask"
    value {
      i: 0
    }
  }
  attr {
    key: "end_mask"
    value {
      i: 0
    }
  }
  attr {
    key: "new_axis_mask"
    value {
      i: 0
    }
  }
  attr {
    key: "shrink_axis_mask"
    value {
      i: 0
    }
  }
}
node {
  name: "pi_net_inter/preprocess_layer/Reshape"
  op: "Reshape"
  input: "preprocess_layer/Reshape"
  input: "pi_net_inter/preprocess_layer/strided_slice"
  attr {
    key: "T"
    value {
      type: DT_INT32
    }
  }
  attr {
    key: "Tshape"
    value {
      type: DT_INT32
    }
  }
  attr {
    key: "_output_shapes"
    value {
      list {
        shape {
          dim {
            size: -1
          }
        }
      }
    }
  }
}
node {
  name: "pi_net_inter/preprocess_layer/Shape_1"
  op: "Shape"
  input: "preprocess_layer/Reshape_1"
  attr {
    key: "T"
    value {
      type: DT_FLOAT
    }
  }
  attr {
    key: "_output_shapes"
    value {
      list {
        shape {
          dim {
            size: 1
          }
        }
      }
    }
  }
  attr {
    key: "out_type"
    value {
      type: DT_INT32
    }
  }
}
node {
  name: "pi_net_inter/preprocess_layer/strided_slice_1/stack"
  op: "Const"
  attr {
    key: "_output_shapes"
    value {
      list {
        shape {
          dim {
            size: 1
          }
        }
      }
    }
  }
  attr {
    key: "dtype"
    value {
      type: DT_INT32
    }
  }
  attr {
    key: "value"
    value {
      tensor {
        dtype: DT_INT32
        tensor_shape {
          dim {
            size: 1
          }
        }
        int_val: 0
      }
    }
  }
}
node {
  name: "pi_net_inter/preprocess_layer/strided_slice_1/stack_1"
  op: "Const"
  attr {
    key: "_output_shapes"
    value {
      list {
        shape {
          dim {
            size: 1
          }
        }
      }
    }
  }
  attr {
    key: "dtype"
    value {
      type: DT_INT32
    }
  }
  attr {
    key: "value"
    value {
      tensor {
        dtype: DT_INT32
        tensor_shape {
          dim {
            size: 1
          }
        }
        int_val: 1
      }
    }
  }
}
node {
  name: "pi_net_inter/preprocess_layer/strided_slice_1/stack_2"
  op: "Const"
  attr {
    key: "_output_shapes"
    value {
      list {
        shape {
          dim {
            size: 1
          }
        }
      }
    }
  }
  attr {
    key: "dtype"
    value {
      type: DT_INT32
    }
  }
  attr {
    key: "value"
    value {
      tensor {
        dtype: DT_INT32
        tensor_shape {
          dim {
            size: 1
          }
        }
        int_val: 1
      }
    }
  }
}
node {
  name: "pi_net_inter/preprocess_layer/strided_slice_1"
  op: "StridedSlice"
  input: "pi_net_inter/preprocess_layer/Shape_1"
  input: "pi_net_inter/preprocess_layer/strided_slice_1/stack"
  input: "pi_net_inter/preprocess_layer/strided_slice_1/stack_1"
  input: "pi_net_inter/preprocess_layer/strided_slice_1/stack_2"
  attr {
    key: "Index"
    value {
      type: DT_INT32
    }
  }
  attr {
    key: "T"
    value {
      type: DT_INT32
    }
  }
  attr {
    key: "_output_shapes"
    value {
      list {
        shape {
          dim {
            size: 1
          }
        }
      }
    }
  }
  attr {
    key: "begin_mask"
    value {
      i: 1
    }
  }
  attr {
    key: "ellipsis_mask"
    value {
      i: 0
    }
  }
  attr {
    key: "end_mask"
    value {
      i: 0
    }
  }
  attr {
    key: "new_axis_mask"
    value {
      i: 0
    }
  }
  attr {
    key: "shrink_axis_mask"
    value {
      i: 0
    }
  }
}
node {
  name: "pi_net_inter/preprocess_layer/Reshape_1"
  op: "Reshape"
  input: "preprocess_layer/Reshape_1"
  input: "pi_net_inter/preprocess_layer/strided_slice_1"
  attr {
    key: "T"
    value {
      type: DT_FLOAT
    }
  }
  attr {
    key: "Tshape"
    value {
      type: DT_INT32
    }
  }
  attr {
    key: "_output_shapes"
    value {
      list {
        shape {
          dim {
            size: -1
          }
        }
      }
    }
  }
}
node {
  name: "pi_net_inter/gaussian_basis/cutoff_func/mul/x"
  op: "Const"
  attr {
    key: "_output_shapes"
    value {
      list {
        shape {
        }
      }
    }
  }
  attr {
    key: "dtype"
    value {
      type: DT_FLOAT
    }
  }
  attr {
    key: "value"
    value {
      tensor {
        dtype: DT_FLOAT
        tensor_shape {
        }
        float_val: 3.1415927410125732
      }
    }
  }
}
node {
  name: "pi_net_inter/gaussian_basis/cutoff_func/mul"
  op: "Mul"
  input: "pi_net_inter/gaussian_basis/cutoff_func/mul/x"
  input: "pi_net_inter/preprocess_layer/Reshape_1"
  attr {
    key: "T"
    value {
      type: DT_FLOAT
    }
  }
  attr {
    key: "_output_shapes"
    value {
      list {
        shape {
          dim {
            size: -1
          }
        }
      }
    }
  }
}
node {
  name: "pi_net_inter/gaussian_basis/cutoff_func/truediv/y"
  op: "Const"
  attr {
    key: "_output_shapes"
    value {
      list {
        shape {
        }
      }
    }
  }
  attr {
    key: "dtype"
    value {
      type: DT_FLOAT
    }
  }
  attr {
    key: "value"
    value {
      tensor {
        dtype: DT_FLOAT
        tensor_shape {
        }
        float_val: 4.5
      }
    }
  }
}
node {
  name: "pi_net_inter/gaussian_basis/cutoff_func/truediv"
  op: "RealDiv"
  input: "pi_net_inter/gaussian_basis/cutoff_func/mul"
  input: "pi_net_inter/gaussian_basis/cutoff_func/truediv/y"
  attr {
    key: "T"
    value {
      type: DT_FLOAT
    }
  }
  attr {
    key: "_output_shapes"
    value {
      list {
        shape {
          dim {
            size: -1
          }
        }
      }
    }
  }
}
node {
  name: "pi_net_inter/gaussian_basis/cutoff_func/Cos"
  op: "Cos"
  input: "pi_net_inter/gaussian_basis/cutoff_func/truediv"
  attr {
    key: "T"
    value {
      type: DT_FLOAT
    }
  }
  attr {
    key: "_output_shapes"
    value {
      list {
        shape {
          dim {
            size: -1
          }
        }
      }
    }
  }
}
node {
  name: "pi_net_inter/gaussian_basis/cutoff_func/add/y"
  op: "Const"
  attr {
    key: "_output_shapes"
    value {
      list {
        shape {
        }
      }
    }
  }
  attr {
    key: "dtype"
    value {
      type: DT_FLOAT
    }
  }
  attr {
    key: "value"
    value {
      tensor {
        dtype: DT_FLOAT
        tensor_shape {
        }
        float_val: 1.0
      }
    }
  }
}
node {
  name: "pi_net_inter/gaussian_basis/cutoff_func/add"
  op: "AddV2"
  input: "pi_net_inter/gaussian_basis/cutoff_func/Cos"
  input: "pi_net_inter/gaussian_basis/cutoff_func/add/y"
  attr {
    key: "T"
    value {
      type: DT_FLOAT
    }
  }
  attr {
    key: "_output_shapes"
    value {
      list {
        shape {
          dim {
            size: -1
          }
        }
      }
    }
  }
}
node {
  name: "pi_net_inter/gaussian_basis/cutoff_func/mul_1/x"
  op: "Const"
  attr {
    key: "_output_shapes"
    value {
      list {
        shape {
        }
      }
    }
  }
  attr {
    key: "dtype"
    value {
      type: DT_FLOAT
    }
  }
  attr {
    key: "value"
    value {
      tensor {
        dtype: DT_FLOAT
        tensor_shape {
        }
        float_val: 0.5
      }
    }
  }
}
node {
  name: "pi_net_inter/gaussian_basis/cutoff_func/mul_1"
  op: "Mul"
  input: "pi_net_inter/gaussian_basis/cutoff_func/mul_1/x"
  input: "pi_net_inter/gaussian_basis/cutoff_func/add"
  attr {
    key: "T"
    value {
      type: DT_FLOAT
    }
  }
  attr {
    key: "_output_shapes"
    value {
      list {
        shape {
          dim {
            size: -1
          }
        }
      }
    }
  }
}
node {
  name: "pi_net_inter/gaussian_basis/sub/y"
  op: "Const"
  attr {
    key: "_output_shapes"
    value {
      list {
        shape {
        }
      }
    }
  }
  attr {
    key: "dtype"
    value {
      type: DT_FLOAT
    }
  }
  attr {
    key: "value"
    value {
      tensor {
        dtype: DT_FLOAT
        tensor_shape {
        }
        float_val: 0.0
      }
    }
  }
}
node {
  name: "pi_net_inter/gaussian_basis/sub"
  op: "Sub"
  input: "pi_net_inter/preprocess_layer/Reshape_1"
  input: "pi_net_inter/gaussian_basis/sub/y"
  attr {
    key: "T"
    value {
      type: DT_FLOAT
    }
  }
  attr {
    key: "_output_shapes"
    value {
      list {
        shape {
          dim {
            size: -1
          }
        }
      }
    }
  }
}
node {
  name: "pi_net_inter/gaussian_basis/pow/y"
  op: "Const"
  attr {
    key: "_output_shapes"
    value {
      list {
        shape {
        }
      }
    }
  }
  attr {
    key: "dtype"
    value {
      type: DT_FLOAT
    }
  }
  attr {
    key: "value"
    value {
      tensor {
        dtype: DT_FLOAT
        tensor_shape {
        }
        float_val: 2.0
      }
    }
  }
}
node {
  name: "pi_net_inter/gaussian_basis/pow"
  op: "Pow"
  input: "pi_net_inter/gaussian_basis/sub"
  input: "pi_net_inter/gaussian_basis/pow/y"
  attr {
    key: "T"
    value {
      type: DT_FLOAT
    }
  }
  attr {
    key: "_output_shapes"
    value {
      list {
        shape {
          dim {
            size: -1
          }
        }
      }
    }
  }
}
node {
  name: "pi_net_inter/gaussian_basis/mul/x"
  op: "Const"
  attr {
    key: "_output_shapes"
    value {
      list {
        shape {
        }
      }
    }
  }
  attr {
    key: "dtype"
    value {
      type: DT_FLOAT
    }
  }
  attr {
    key: "value"
    value {
      tensor {
        dtype: DT_FLOAT
        tensor_shape {
        }
        float_val: -3.0
      }
    }
  }
}
node {
  name: "pi_net_inter/gaussian_basis/mul"
  op: "Mul"
  input: "pi_net_inter/gaussian_basis/mul/x"
  input: "pi_net_inter/gaussian_basis/pow"
  attr {
    key: "T"
    value {
      type: DT_FLOAT
    }
  }
  attr {
    key: "_output_shapes"
    value {
      list {
        shape {
          dim {
            size: -1
          }
        }
      }
    }
  }
}
node {
  name: "pi_net_inter/gaussian_basis/Exp"
  op: "Exp"
  input: "pi_net_inter/gaussian_basis/mul"
  attr {
    key: "T"
    value {
      type: DT_FLOAT
    }
  }
  attr {
    key: "_output_shapes"
    value {
      list {
        shape {
          dim {
            size: -1
          }
        }
      }
    }
  }
}
node {
  name: "pi_net_inter/gaussian_basis/mul_1"
  op: "Mul"
  input: "pi_net_inter/gaussian_basis/Exp"
  input: "pi_net_inter/gaussian_basis/cutoff_func/mul_1"
  attr {
    key: "T"
    value {
      type: DT_FLOAT
    }
  }
  attr {
    key: "_output_shapes"
    value {
      list {
        shape {
          dim {
            size: -1
          }
        }
      }
    }
  }
}
node {
  name: "pi_net_inter/gaussian_basis/sub_1/y"
  op: "Const"
  attr {
    key: "_output_shapes"
    value {
      list {
        shape {
        }
      }
    }
  }
  attr {
    key: "dtype"
    value {
      type: DT_FLOAT
    }
  }
  attr {
    key: "value"
    value {
      tensor {
        dtype: DT_FLOAT
        tensor_shape {
        }
        float_val: 0.2368421107530594
      }
    }
  }
}
node {
  name: "pi_net_inter/gaussian_basis/sub_1"
  op: "Sub"
  input: "pi_net_inter/preprocess_layer/Reshape_1"
  input: "pi_net_inter/gaussian_basis/sub_1/y"
  attr {
    key: "T"
    value {
      type: DT_FLOAT
    }
  }
  attr {
    key: "_output_shapes"
    value {
      list {
        shape {
          dim {
            size: -1
          }
        }
      }
    }
  }
}
node {
  name: "pi_net_inter/gaussian_basis/pow_1/y"
  op: "Const"
  attr {
    key: "_output_shapes"
    value {
      list {
        shape {
        }
      }
    }
  }
  attr {
    key: "dtype"
    value {
      type: DT_FLOAT
    }
  }
  attr {
    key: "value"
    value {
      tensor {
        dtype: DT_FLOAT
        tensor_shape {
        }
        float_val: 2.0
      }
    }
  }
}
node {
  name: "pi_net_inter/gaussian_basis/pow_1"
  op: "Pow"
  input: "pi_net_inter/gaussian_basis/sub_1"
  input: "pi_net_inter/gaussian_basis/pow_1/y"
  attr {
    key: "T"
    value {
      type: DT_FLOAT
    }
  }
  attr {
    key: "_output_shapes"
    value {
      list {
        shape {
          dim {
            size: -1
          }
        }
      }
    }
  }
}
node {
  name: "pi_net_inter/gaussian_basis/mul_2/x"
  op: "Const"
  attr {
    key: "_output_shapes"
    value {
      list {
        shape {
        }
      }
    }
  }
  attr {
    key: "dtype"
    value {
      type: DT_FLOAT
    }
  }
  attr {
    key: "value"
    value {
      tensor {
        dtype: DT_FLOAT
        tensor_shape {
        }
        float_val: -3.0
      }
    }
  }
}
node {
  name: "pi_net_inter/gaussian_basis/mul_2"
  op: "Mul"
  input: "pi_net_inter/gaussian_basis/mul_2/x"
  input: "pi_net_inter/gaussian_basis/pow_1"
  attr {
    key: "T"
    value {
      type: DT_FLOAT
    }
  }
  attr {
    key: "_output_shapes"
    value {
      list {
        shape {
          dim {
            size: -1
          }
        }
      }
    }
  }
}
node {
  name: "pi_net_inter/gaussian_basis/Exp_1"
  op: "Exp"
  input: "pi_net_inter/gaussian_basis/mul_2"
  attr {
    key: "T"
    value {
      type: DT_FLOAT
    }
  }
  attr {
    key: "_output_shapes"
    value {
      list {
        shape {
          dim {
            size: -1
          }
        }
      }
    }
  }
}
node {
  name: "pi_net_inter/gaussian_basis/mul_3"
  op: "Mul"
  input: "pi_net_inter/gaussian_basis/Exp_1"
  input: "pi_net_inter/gaussian_basis/cutoff_func/mul_1"
  attr {
    key: "T"
    value {
      type: DT_FLOAT
    }
  }
  attr {
    key: "_output_shapes"
    value {
      list {
        shape {
          dim {
            size: -1
          }
        }
      }
    }
  }
}
node {
  name: "pi_net_inter/gaussian_basis/sub_2/y"
  op: "Const"
  attr {
    key: "_output_shapes"
    value {
      list {
        shape {
        }
      }
    }
  }
  attr {
    key: "dtype"
    value {
      type: DT_FLOAT
    }
  }
  attr {
    key: "value"
    value {
      tensor {
        dtype: DT_FLOAT
        tensor_shape {
        }
        float_val: 0.4736842215061188
      }
    }
  }
}
node {
  name: "pi_net_inter/gaussian_basis/sub_2"
  op: "Sub"
  input: "pi_net_inter/preprocess_layer/Reshape_1"
  input: "pi_net_inter/gaussian_basis/sub_2/y"
  attr {
    key: "T"
    value {
      type: DT_FLOAT
    }
  }
  attr {
    key: "_output_shapes"
    value {
      list {
        shape {
          dim {
            size: -1
          }
        }
      }
    }
  }
}
node {
  name: "pi_net_inter/gaussian_basis/pow_2/y"
  op: "Const"
  attr {
    key: "_output_shapes"
    value {
      list {
        shape {
        }
      }
    }
  }
  attr {
    key: "dtype"
    value {
      type: DT_FLOAT
    }
  }
  attr {
    key: "value"
    value {
      tensor {
        dtype: DT_FLOAT
        tensor_shape {
        }
        float_val: 2.0
      }
    }
  }
}
node {
  name: "pi_net_inter/gaussian_basis/pow_2"
  op: "Pow"
  input: "pi_net_inter/gaussian_basis/sub_2"
  input: "pi_net_inter/gaussian_basis/pow_2/y"
  attr {
    key: "T"
    value {
      type: DT_FLOAT
    }
  }
  attr {
    key: "_output_shapes"
    value {
      list {
        shape {
          dim {
            size: -1
          }
        }
      }
    }
  }
}
node {
  name: "pi_net_inter/gaussian_basis/mul_4/x"
  op: "Const"
  attr {
    key: "_output_shapes"
    value {
      list {
        shape {
        }
      }
    }
  }
  attr {
    key: "dtype"
    value {
      type: DT_FLOAT
    }
  }
  attr {
    key: "value"
    value {
      tensor {
        dtype: DT_FLOAT
        tensor_shape {
        }
        float_val: -3.0
      }
    }
  }
}
node {
  name: "pi_net_inter/gaussian_basis/mul_4"
  op: "Mul"
  input: "pi_net_inter/gaussian_basis/mul_4/x"
  input: "pi_net_inter/gaussian_basis/pow_2"
  attr {
    key: "T"
    value {
      type: DT_FLOAT
    }
  }
  attr {
    key: "_output_shapes"
    value {
      list {
        shape {
          dim {
            size: -1
          }
        }
      }
    }
  }
}
node {
  name: "pi_net_inter/gaussian_basis/Exp_2"
  op: "Exp"
  input: "pi_net_inter/gaussian_basis/mul_4"
  attr {
    key: "T"
    value {
      type: DT_FLOAT
    }
  }
  attr {
    key: "_output_shapes"
    value {
      list {
        shape {
          dim {
            size: -1
          }
        }
      }
    }
  }
}
node {
  name: "pi_net_inter/gaussian_basis/mul_5"
  op: "Mul"
  input: "pi_net_inter/gaussian_basis/Exp_2"
  input: "pi_net_inter/gaussian_basis/cutoff_func/mul_1"
  attr {
    key: "T"
    value {
      type: DT_FLOAT
    }
  }
  attr {
    key: "_output_shapes"
    value {
      list {
        shape {
          dim {
            size: -1
          }
        }
      }
    }
  }
}
node {
  name: "pi_net_inter/gaussian_basis/sub_3/y"
  op: "Const"
  attr {
    key: "_output_shapes"
    value {
      list {
        shape {
        }
      }
    }
  }
  attr {
    key: "dtype"
    value {
      type: DT_FLOAT
    }
  }
  attr {
    key: "value"
    value {
      tensor {
        dtype: DT_FLOAT
        tensor_shape {
        }
        float_val: 0.7105262875556946
      }
    }
  }
}
node {
  name: "pi_net_inter/gaussian_basis/sub_3"
  op: "Sub"
  input: "pi_net_inter/preprocess_layer/Reshape_1"
  input: "pi_net_inter/gaussian_basis/sub_3/y"
  attr {
    key: "T"
    value {
      type: DT_FLOAT
    }
  }
  attr {
    key: "_output_shapes"
    value {
      list {
        shape {
          dim {
            size: -1
          }
        }
      }
    }
  }
}
node {
  name: "pi_net_inter/gaussian_basis/pow_3/y"
  op: "Const"
  attr {
    key: "_output_shapes"
    value {
      list {
        shape {
        }
      }
    }
  }
  attr {
    key: "dtype"
    value {
      type: DT_FLOAT
    }
  }
  attr {
    key: "value"
    value {
      tensor {
        dtype: DT_FLOAT
        tensor_shape {
        }
        float_val: 2.0
      }
    }
  }
}
node {
  name: "pi_net_inter/gaussian_basis/pow_3"
  op: "Pow"
  input: "pi_net_inter/gaussian_basis/sub_3"
  input: "pi_net_inter/gaussian_basis/pow_3/y"
  attr {
    key: "T"
    value {
      type: DT_FLOAT
    }
  }
  attr {
    key: "_output_shapes"
    value {
      list {
        shape {
          dim {
            size: -1
          }
        }
      }
    }
  }
}
node {
  name: "pi_net_inter/gaussian_basis/mul_6/x"
  op: "Const"
  attr {
    key: "_output_shapes"
    value {
      list {
        shape {
        }
      }
    }
  }
  attr {
    key: "dtype"
    value {
      type: DT_FLOAT
    }
  }
  attr {
    key: "value"
    value {
      tensor {
        dtype: DT_FLOAT
        tensor_shape {
        }
        float_val: -3.0
      }
    }
  }
}
node {
  name: "pi_net_inter/gaussian_basis/mul_6"
  op: "Mul"
  input: "pi_net_inter/gaussian_basis/mul_6/x"
  input: "pi_net_inter/gaussian_basis/pow_3"
  attr {
    key: "T"
    value {
      type: DT_FLOAT
    }
  }
  attr {
    key: "_output_shapes"
    value {
      list {
        shape {
          dim {
            size: -1
          }
        }
      }
    }
  }
}
node {
  name: "pi_net_inter/gaussian_basis/Exp_3"
  op: "Exp"
  input: "pi_net_inter/gaussian_basis/mul_6"
  attr {
    key: "T"
    value {
      type: DT_FLOAT
    }
  }
  attr {
    key: "_output_shapes"
    value {
      list {
        shape {
          dim {
            size: -1
          }
        }
      }
    }
  }
}
node {
  name: "pi_net_inter/gaussian_basis/mul_7"
  op: "Mul"
  input: "pi_net_inter/gaussian_basis/Exp_3"
  input: "pi_net_inter/gaussian_basis/cutoff_func/mul_1"
  attr {
    key: "T"
    value {
      type: DT_FLOAT
    }
  }
  attr {
    key: "_output_shapes"
    value {
      list {
        shape {
          dim {
            size: -1
          }
        }
      }
    }
  }
}
node {
  name: "pi_net_inter/gaussian_basis/sub_4/y"
  op: "Const"
  attr {
    key: "_output_shapes"
    value {
      list {
        shape {
        }
      }
    }
  }
  attr {
    key: "dtype"
    value {
      type: DT_FLOAT
    }
  }
  attr {
    key: "value"
    value {
      tensor {
        dtype: DT_FLOAT
        tensor_shape {
        }
        float_val: 0.9473684430122375
      }
    }
  }
}
node {
  name: "pi_net_inter/gaussian_basis/sub_4"
  op: "Sub"
  input: "pi_net_inter/preprocess_layer/Reshape_1"
  input: "pi_net_inter/gaussian_basis/sub_4/y"
  attr {
    key: "T"
    value {
      type: DT_FLOAT
    }
  }
  attr {
    key: "_output_shapes"
    value {
      list {
        shape {
          dim {
            size: -1
          }
        }
      }
    }
  }
}
node {
  name: "pi_net_inter/gaussian_basis/pow_4/y"
  op: "Const"
  attr {
    key: "_output_shapes"
    value {
      list {
        shape {
        }
      }
    }
  }
  attr {
    key: "dtype"
    value {
      type: DT_FLOAT
    }
  }
  attr {
    key: "value"
    value {
      tensor {
        dtype: DT_FLOAT
        tensor_shape {
        }
        float_val: 2.0
      }
    }
  }
}
node {
  name: "pi_net_inter/gaussian_basis/pow_4"
  op: "Pow"
  input: "pi_net_inter/gaussian_basis/sub_4"
  input: "pi_net_inter/gaussian_basis/pow_4/y"
  attr {
    key: "T"
    value {
      type: DT_FLOAT
    }
  }
  attr {
    key: "_output_shapes"
    value {
      list {
        shape {
          dim {
            size: -1
          }
        }
      }
    }
  }
}
node {
  name: "pi_net_inter/gaussian_basis/mul_8/x"
  op: "Const"
  attr {
    key: "_output_shapes"
    value {
      list {
        shape {
        }
      }
    }
  }
  attr {
    key: "dtype"
    value {
      type: DT_FLOAT
    }
  }
  attr {
    key: "value"
    value {
      tensor {
        dtype: DT_FLOAT
        tensor_shape {
        }
        float_val: -3.0
      }
    }
  }
}
node {
  name: "pi_net_inter/gaussian_basis/mul_8"
  op: "Mul"
  input: "pi_net_inter/gaussian_basis/mul_8/x"
  input: "pi_net_inter/gaussian_basis/pow_4"
  attr {
    key: "T"
    value {
      type: DT_FLOAT
    }
  }
  attr {
    key: "_output_shapes"
    value {
      list {
        shape {
          dim {
            size: -1
          }
        }
      }
    }
  }
}
node {
  name: "pi_net_inter/gaussian_basis/Exp_4"
  op: "Exp"
  input: "pi_net_inter/gaussian_basis/mul_8"
  attr {
    key: "T"
    value {
      type: DT_FLOAT
    }
  }
  attr {
    key: "_output_shapes"
    value {
      list {
        shape {
          dim {
            size: -1
          }
        }
      }
    }
  }
}
node {
  name: "pi_net_inter/gaussian_basis/mul_9"
  op: "Mul"
  input: "pi_net_inter/gaussian_basis/Exp_4"
  input: "pi_net_inter/gaussian_basis/cutoff_func/mul_1"
  attr {
    key: "T"
    value {
      type: DT_FLOAT
    }
  }
  attr {
    key: "_output_shapes"
    value {
      list {
        shape {
          dim {
            size: -1
          }
        }
      }
    }
  }
}
node {
  name: "pi_net_inter/gaussian_basis/sub_5/y"
  op: "Const"
  attr {
    key: "_output_shapes"
    value {
      list {
        shape {
        }
      }
    }
  }
  attr {
    key: "dtype"
    value {
      type: DT_FLOAT
    }
  }
  attr {
    key: "value"
    value {
      tensor {
        dtype: DT_FLOAT
        tensor_shape {
        }
        float_val: 1.1842105388641357
      }
    }
  }
}
node {
  name: "pi_net_inter/gaussian_basis/sub_5"
  op: "Sub"
  input: "pi_net_inter/preprocess_layer/Reshape_1"
  input: "pi_net_inter/gaussian_basis/sub_5/y"
  attr {
    key: "T"
    value {
      type: DT_FLOAT
    }
  }
  attr {
    key: "_output_shapes"
    value {
      list {
        shape {
          dim {
            size: -1
          }
        }
      }
    }
  }
}
node {
  name: "pi_net_inter/gaussian_basis/pow_5/y"
  op: "Const"
  attr {
    key: "_output_shapes"
    value {
      list {
        shape {
        }
      }
    }
  }
  attr {
    key: "dtype"
    value {
      type: DT_FLOAT
    }
  }
  attr {
    key: "value"
    value {
      tensor {
        dtype: DT_FLOAT
        tensor_shape {
        }
        float_val: 2.0
      }
    }
  }
}
node {
  name: "pi_net_inter/gaussian_basis/pow_5"
  op: "Pow"
  input: "pi_net_inter/gaussian_basis/sub_5"
  input: "pi_net_inter/gaussian_basis/pow_5/y"
  attr {
    key: "T"
    value {
      type: DT_FLOAT
    }
  }
  attr {
    key: "_output_shapes"
    value {
      list {
        shape {
          dim {
            size: -1
          }
        }
      }
    }
  }
}
node {
  name: "pi_net_inter/gaussian_basis/mul_10/x"
  op: "Const"
  attr {
    key: "_output_shapes"
    value {
      list {
        shape {
        }
      }
    }
  }
  attr {
    key: "dtype"
    value {
      type: DT_FLOAT
    }
  }
  attr {
    key: "value"
    value {
      tensor {
        dtype: DT_FLOAT
        tensor_shape {
        }
        float_val: -3.0
      }
    }
  }
}
node {
  name: "pi_net_inter/gaussian_basis/mul_10"
  op: "Mul"
  input: "pi_net_inter/gaussian_basis/mul_10/x"
  input: "pi_net_inter/gaussian_basis/pow_5"
  attr {
    key: "T"
    value {
      type: DT_FLOAT
    }
  }
  attr {
    key: "_output_shapes"
    value {
      list {
        shape {
          dim {
            size: -1
          }
        }
      }
    }
  }
}
node {
  name: "pi_net_inter/gaussian_basis/Exp_5"
  op: "Exp"
  input: "pi_net_inter/gaussian_basis/mul_10"
  attr {
    key: "T"
    value {
      type: DT_FLOAT
    }
  }
  attr {
    key: "_output_shapes"
    value {
      list {
        shape {
          dim {
            size: -1
          }
        }
      }
    }
  }
}
node {
  name: "pi_net_inter/gaussian_basis/mul_11"
  op: "Mul"
  input: "pi_net_inter/gaussian_basis/Exp_5"
  input: "pi_net_inter/gaussian_basis/cutoff_func/mul_1"
  attr {
    key: "T"
    value {
      type: DT_FLOAT
    }
  }
  attr {
    key: "_output_shapes"
    value {
      list {
        shape {
          dim {
            size: -1
          }
        }
      }
    }
  }
}
node {
  name: "pi_net_inter/gaussian_basis/sub_6/y"
  op: "Const"
  attr {
    key: "_output_shapes"
    value {
      list {
        shape {
        }
      }
    }
  }
  attr {
    key: "dtype"
    value {
      type: DT_FLOAT
    }
  }
  attr {
    key: "value"
    value {
      tensor {
        dtype: DT_FLOAT
        tensor_shape {
        }
        float_val: 1.4210525751113892
      }
    }
  }
}
node {
  name: "pi_net_inter/gaussian_basis/sub_6"
  op: "Sub"
  input: "pi_net_inter/preprocess_layer/Reshape_1"
  input: "pi_net_inter/gaussian_basis/sub_6/y"
  attr {
    key: "T"
    value {
      type: DT_FLOAT
    }
  }
  attr {
    key: "_output_shapes"
    value {
      list {
        shape {
          dim {
            size: -1
          }
        }
      }
    }
  }
}
node {
  name: "pi_net_inter/gaussian_basis/pow_6/y"
  op: "Const"
  attr {
    key: "_output_shapes"
    value {
      list {
        shape {
        }
      }
    }
  }
  attr {
    key: "dtype"
    value {
      type: DT_FLOAT
    }
  }
  attr {
    key: "value"
    value {
      tensor {
        dtype: DT_FLOAT
        tensor_shape {
        }
        float_val: 2.0
      }
    }
  }
}
node {
  name: "pi_net_inter/gaussian_basis/pow_6"
  op: "Pow"
  input: "pi_net_inter/gaussian_basis/sub_6"
  input: "pi_net_inter/gaussian_basis/pow_6/y"
  attr {
    key: "T"
    value {
      type: DT_FLOAT
    }
  }
  attr {
    key: "_output_shapes"
    value {
      list {
        shape {
          dim {
            size: -1
          }
        }
      }
    }
  }
}
node {
  name: "pi_net_inter/gaussian_basis/mul_12/x"
  op: "Const"
  attr {
    key: "_output_shapes"
    value {
      list {
        shape {
        }
      }
    }
  }
  attr {
    key: "dtype"
    value {
      type: DT_FLOAT
    }
  }
  attr {
    key: "value"
    value {
      tensor {
        dtype: DT_FLOAT
        tensor_shape {
        }
        float_val: -3.0
      }
    }
  }
}
node {
  name: "pi_net_inter/gaussian_basis/mul_12"
  op: "Mul"
  input: "pi_net_inter/gaussian_basis/mul_12/x"
  input: "pi_net_inter/gaussian_basis/pow_6"
  attr {
    key: "T"
    value {
      type: DT_FLOAT
    }
  }
  attr {
    key: "_output_shapes"
    value {
      list {
        shape {
          dim {
            size: -1
          }
        }
      }
    }
  }
}
node {
  name: "pi_net_inter/gaussian_basis/Exp_6"
  op: "Exp"
  input: "pi_net_inter/gaussian_basis/mul_12"
  attr {
    key: "T"
    value {
      type: DT_FLOAT
    }
  }
  attr {
    key: "_output_shapes"
    value {
      list {
        shape {
          dim {
            size: -1
          }
        }
      }
    }
  }
}
node {
  name: "pi_net_inter/gaussian_basis/mul_13"
  op: "Mul"
  input: "pi_net_inter/gaussian_basis/Exp_6"
  input: "pi_net_inter/gaussian_basis/cutoff_func/mul_1"
  attr {
    key: "T"
    value {
      type: DT_FLOAT
    }
  }
  attr {
    key: "_output_shapes"
    value {
      list {
        shape {
          dim {
            size: -1
          }
        }
      }
    }
  }
}
node {
  name: "pi_net_inter/gaussian_basis/sub_7/y"
  op: "Const"
  attr {
    key: "_output_shapes"
    value {
      list {
        shape {
        }
      }
    }
  }
  attr {
    key: "dtype"
    value {
      type: DT_FLOAT
    }
  }
  attr {
    key: "value"
    value {
      tensor {
        dtype: DT_FLOAT
        tensor_shape {
        }
        float_val: 1.6578947305679321
      }
    }
  }
}
node {
  name: "pi_net_inter/gaussian_basis/sub_7"
  op: "Sub"
  input: "pi_net_inter/preprocess_layer/Reshape_1"
  input: "pi_net_inter/gaussian_basis/sub_7/y"
  attr {
    key: "T"
    value {
      type: DT_FLOAT
    }
  }
  attr {
    key: "_output_shapes"
    value {
      list {
        shape {
          dim {
            size: -1
          }
        }
      }
    }
  }
}
node {
  name: "pi_net_inter/gaussian_basis/pow_7/y"
  op: "Const"
  attr {
    key: "_output_shapes"
    value {
      list {
        shape {
        }
      }
    }
  }
  attr {
    key: "dtype"
    value {
      type: DT_FLOAT
    }
  }
  attr {
    key: "value"
    value {
      tensor {
        dtype: DT_FLOAT
        tensor_shape {
        }
        float_val: 2.0
      }
    }
  }
}
node {
  name: "pi_net_inter/gaussian_basis/pow_7"
  op: "Pow"
  input: "pi_net_inter/gaussian_basis/sub_7"
  input: "pi_net_inter/gaussian_basis/pow_7/y"
  attr {
    key: "T"
    value {
      type: DT_FLOAT
    }
  }
  attr {
    key: "_output_shapes"
    value {
      list {
        shape {
          dim {
            size: -1
          }
        }
      }
    }
  }
}
node {
  name: "pi_net_inter/gaussian_basis/mul_14/x"
  op: "Const"
  attr {
    key: "_output_shapes"
    value {
      list {
        shape {
        }
      }
    }
  }
  attr {
    key: "dtype"
    value {
      type: DT_FLOAT
    }
  }
  attr {
    key: "value"
    value {
      tensor {
        dtype: DT_FLOAT
        tensor_shape {
        }
        float_val: -3.0
      }
    }
  }
}
node {
  name: "pi_net_inter/gaussian_basis/mul_14"
  op: "Mul"
  input: "pi_net_inter/gaussian_basis/mul_14/x"
  input: "pi_net_inter/gaussian_basis/pow_7"
  attr {
    key: "T"
    value {
      type: DT_FLOAT
    }
  }
  attr {
    key: "_output_shapes"
    value {
      list {
        shape {
          dim {
            size: -1
          }
        }
      }
    }
  }
}
node {
  name: "pi_net_inter/gaussian_basis/Exp_7"
  op: "Exp"
  input: "pi_net_inter/gaussian_basis/mul_14"
  attr {
    key: "T"
    value {
      type: DT_FLOAT
    }
  }
  attr {
    key: "_output_shapes"
    value {
      list {
        shape {
          dim {
            size: -1
          }
        }
      }
    }
  }
}
node {
  name: "pi_net_inter/gaussian_basis/mul_15"
  op: "Mul"
  input: "pi_net_inter/gaussian_basis/Exp_7"
  input: "pi_net_inter/gaussian_basis/cutoff_func/mul_1"
  attr {
    key: "T"
    value {
      type: DT_FLOAT
    }
  }
  attr {
    key: "_output_shapes"
    value {
      list {
        shape {
          dim {
            size: -1
          }
        }
      }
    }
  }
}
node {
  name: "pi_net_inter/gaussian_basis/sub_8/y"
  op: "Const"
  attr {
    key: "_output_shapes"
    value {
      list {
        shape {
        }
      }
    }
  }
  attr {
    key: "dtype"
    value {
      type: DT_FLOAT
    }
  }
  attr {
    key: "value"
    value {
      tensor {
        dtype: DT_FLOAT
        tensor_shape {
        }
        float_val: 1.894736886024475
      }
    }
  }
}
node {
  name: "pi_net_inter/gaussian_basis/sub_8"
  op: "Sub"
  input: "pi_net_inter/preprocess_layer/Reshape_1"
  input: "pi_net_inter/gaussian_basis/sub_8/y"
  attr {
    key: "T"
    value {
      type: DT_FLOAT
    }
  }
  attr {
    key: "_output_shapes"
    value {
      list {
        shape {
          dim {
            size: -1
          }
        }
      }
    }
  }
}
node {
  name: "pi_net_inter/gaussian_basis/pow_8/y"
  op: "Const"
  attr {
    key: "_output_shapes"
    value {
      list {
        shape {
        }
      }
    }
  }
  attr {
    key: "dtype"
    value {
      type: DT_FLOAT
    }
  }
  attr {
    key: "value"
    value {
      tensor {
        dtype: DT_FLOAT
        tensor_shape {
        }
        float_val: 2.0
      }
    }
  }
}
node {
  name: "pi_net_inter/gaussian_basis/pow_8"
  op: "Pow"
  input: "pi_net_inter/gaussian_basis/sub_8"
  input: "pi_net_inter/gaussian_basis/pow_8/y"
  attr {
    key: "T"
    value {
      type: DT_FLOAT
    }
  }
  attr {
    key: "_output_shapes"
    value {
      list {
        shape {
          dim {
            size: -1
          }
        }
      }
    }
  }
}
node {
  name: "pi_net_inter/gaussian_basis/mul_16/x"
  op: "Const"
  attr {
    key: "_output_shapes"
    value {
      list {
        shape {
        }
      }
    }
  }
  attr {
    key: "dtype"
    value {
      type: DT_FLOAT
    }
  }
  attr {
    key: "value"
    value {
      tensor {
        dtype: DT_FLOAT
        tensor_shape {
        }
        float_val: -3.0
      }
    }
  }
}
node {
  name: "pi_net_inter/gaussian_basis/mul_16"
  op: "Mul"
  input: "pi_net_inter/gaussian_basis/mul_16/x"
  input: "pi_net_inter/gaussian_basis/pow_8"
  attr {
    key: "T"
    value {
      type: DT_FLOAT
    }
  }
  attr {
    key: "_output_shapes"
    value {
      list {
        shape {
          dim {
            size: -1
          }
        }
      }
    }
  }
}
node {
  name: "pi_net_inter/gaussian_basis/Exp_8"
  op: "Exp"
  input: "pi_net_inter/gaussian_basis/mul_16"
  attr {
    key: "T"
    value {
      type: DT_FLOAT
    }
  }
  attr {
    key: "_output_shapes"
    value {
      list {
        shape {
          dim {
            size: -1
          }
        }
      }
    }
  }
}
node {
  name: "pi_net_inter/gaussian_basis/mul_17"
  op: "Mul"
  input: "pi_net_inter/gaussian_basis/Exp_8"
  input: "pi_net_inter/gaussian_basis/cutoff_func/mul_1"
  attr {
    key: "T"
    value {
      type: DT_FLOAT
    }
  }
  attr {
    key: "_output_shapes"
    value {
      list {
        shape {
          dim {
            size: -1
          }
        }
      }
    }
  }
}
node {
  name: "pi_net_inter/gaussian_basis/sub_9/y"
  op: "Const"
  attr {
    key: "_output_shapes"
    value {
      list {
        shape {
        }
      }
    }
  }
  attr {
    key: "dtype"
    value {
      type: DT_FLOAT
    }
  }
  attr {
    key: "value"
    value {
      tensor {
        dtype: DT_FLOAT
        tensor_shape {
        }
        float_val: 2.1315789222717285
      }
    }
  }
}
node {
  name: "pi_net_inter/gaussian_basis/sub_9"
  op: "Sub"
  input: "pi_net_inter/preprocess_layer/Reshape_1"
  input: "pi_net_inter/gaussian_basis/sub_9/y"
  attr {
    key: "T"
    value {
      type: DT_FLOAT
    }
  }
  attr {
    key: "_output_shapes"
    value {
      list {
        shape {
          dim {
            size: -1
          }
        }
      }
    }
  }
}
node {
  name: "pi_net_inter/gaussian_basis/pow_9/y"
  op: "Const"
  attr {
    key: "_output_shapes"
    value {
      list {
        shape {
        }
      }
    }
  }
  attr {
    key: "dtype"
    value {
      type: DT_FLOAT
    }
  }
  attr {
    key: "value"
    value {
      tensor {
        dtype: DT_FLOAT
        tensor_shape {
        }
        float_val: 2.0
      }
    }
  }
}
node {
  name: "pi_net_inter/gaussian_basis/pow_9"
  op: "Pow"
  input: "pi_net_inter/gaussian_basis/sub_9"
  input: "pi_net_inter/gaussian_basis/pow_9/y"
  attr {
    key: "T"
    value {
      type: DT_FLOAT
    }
  }
  attr {
    key: "_output_shapes"
    value {
      list {
        shape {
          dim {
            size: -1
          }
        }
      }
    }
  }
}
node {
  name: "pi_net_inter/gaussian_basis/mul_18/x"
  op: "Const"
  attr {
    key: "_output_shapes"
    value {
      list {
        shape {
        }
      }
    }
  }
  attr {
    key: "dtype"
    value {
      type: DT_FLOAT
    }
  }
  attr {
    key: "value"
    value {
      tensor {
        dtype: DT_FLOAT
        tensor_shape {
        }
        float_val: -3.0
      }
    }
  }
}
node {
  name: "pi_net_inter/gaussian_basis/mul_18"
  op: "Mul"
  input: "pi_net_inter/gaussian_basis/mul_18/x"
  input: "pi_net_inter/gaussian_basis/pow_9"
  attr {
    key: "T"
    value {
      type: DT_FLOAT
    }
  }
  attr {
    key: "_output_shapes"
    value {
      list {
        shape {
          dim {
            size: -1
          }
        }
      }
    }
  }
}
node {
  name: "pi_net_inter/gaussian_basis/Exp_9"
  op: "Exp"
  input: "pi_net_inter/gaussian_basis/mul_18"
  attr {
    key: "T"
    value {
      type: DT_FLOAT
    }
  }
  attr {
    key: "_output_shapes"
    value {
      list {
        shape {
          dim {
            size: -1
          }
        }
      }
    }
  }
}
node {
  name: "pi_net_inter/gaussian_basis/mul_19"
  op: "Mul"
  input: "pi_net_inter/gaussian_basis/Exp_9"
  input: "pi_net_inter/gaussian_basis/cutoff_func/mul_1"
  attr {
    key: "T"
    value {
      type: DT_FLOAT
    }
  }
  attr {
    key: "_output_shapes"
    value {
      list {
        shape {
          dim {
            size: -1
          }
        }
      }
    }
  }
}
node {
  name: "pi_net_inter/gaussian_basis/sub_10/y"
  op: "Const"
  attr {
    key: "_output_shapes"
    value {
      list {
        shape {
        }
      }
    }
  }
  attr {
    key: "dtype"
    value {
      type: DT_FLOAT
    }
  }
  attr {
    key: "value"
    value {
      tensor {
        dtype: DT_FLOAT
        tensor_shape {
        }
        float_val: 2.3684210777282715
      }
    }
  }
}
node {
  name: "pi_net_inter/gaussian_basis/sub_10"
  op: "Sub"
  input: "pi_net_inter/preprocess_layer/Reshape_1"
  input: "pi_net_inter/gaussian_basis/sub_10/y"
  attr {
    key: "T"
    value {
      type: DT_FLOAT
    }
  }
  attr {
    key: "_output_shapes"
    value {
      list {
        shape {
          dim {
            size: -1
          }
        }
      }
    }
  }
}
node {
  name: "pi_net_inter/gaussian_basis/pow_10/y"
  op: "Const"
  attr {
    key: "_output_shapes"
    value {
      list {
        shape {
        }
      }
    }
  }
  attr {
    key: "dtype"
    value {
      type: DT_FLOAT
    }
  }
  attr {
    key: "value"
    value {
      tensor {
        dtype: DT_FLOAT
        tensor_shape {
        }
        float_val: 2.0
      }
    }
  }
}
node {
  name: "pi_net_inter/gaussian_basis/pow_10"
  op: "Pow"
  input: "pi_net_inter/gaussian_basis/sub_10"
  input: "pi_net_inter/gaussian_basis/pow_10/y"
  attr {
    key: "T"
    value {
      type: DT_FLOAT
    }
  }
  attr {
    key: "_output_shapes"
    value {
      list {
        shape {
          dim {
            size: -1
          }
        }
      }
    }
  }
}
node {
  name: "pi_net_inter/gaussian_basis/mul_20/x"
  op: "Const"
  attr {
    key: "_output_shapes"
    value {
      list {
        shape {
        }
      }
    }
  }
  attr {
    key: "dtype"
    value {
      type: DT_FLOAT
    }
  }
  attr {
    key: "value"
    value {
      tensor {
        dtype: DT_FLOAT
        tensor_shape {
        }
        float_val: -3.0
      }
    }
  }
}
node {
  name: "pi_net_inter/gaussian_basis/mul_20"
  op: "Mul"
  input: "pi_net_inter/gaussian_basis/mul_20/x"
  input: "pi_net_inter/gaussian_basis/pow_10"
  attr {
    key: "T"
    value {
      type: DT_FLOAT
    }
  }
  attr {
    key: "_output_shapes"
    value {
      list {
        shape {
          dim {
            size: -1
          }
        }
      }
    }
  }
}
node {
  name: "pi_net_inter/gaussian_basis/Exp_10"
  op: "Exp"
  input: "pi_net_inter/gaussian_basis/mul_20"
  attr {
    key: "T"
    value {
      type: DT_FLOAT
    }
  }
  attr {
    key: "_output_shapes"
    value {
      list {
        shape {
          dim {
            size: -1
          }
        }
      }
    }
  }
}
node {
  name: "pi_net_inter/gaussian_basis/mul_21"
  op: "Mul"
  input: "pi_net_inter/gaussian_basis/Exp_10"
  input: "pi_net_inter/gaussian_basis/cutoff_func/mul_1"
  attr {
    key: "T"
    value {
      type: DT_FLOAT
    }
  }
  attr {
    key: "_output_shapes"
    value {
      list {
        shape {
          dim {
            size: -1
          }
        }
      }
    }
  }
}
node {
  name: "pi_net_inter/gaussian_basis/sub_11/y"
  op: "Const"
  attr {
    key: "_output_shapes"
    value {
      list {
        shape {
        }
      }
    }
  }
  attr {
    key: "dtype"
    value {
      type: DT_FLOAT
    }
  }
  attr {
    key: "value"
    value {
      tensor {
        dtype: DT_FLOAT
        tensor_shape {
        }
        float_val: 2.6052632331848145
      }
    }
  }
}
node {
  name: "pi_net_inter/gaussian_basis/sub_11"
  op: "Sub"
  input: "pi_net_inter/preprocess_layer/Reshape_1"
  input: "pi_net_inter/gaussian_basis/sub_11/y"
  attr {
    key: "T"
    value {
      type: DT_FLOAT
    }
  }
  attr {
    key: "_output_shapes"
    value {
      list {
        shape {
          dim {
            size: -1
          }
        }
      }
    }
  }
}
node {
  name: "pi_net_inter/gaussian_basis/pow_11/y"
  op: "Const"
  attr {
    key: "_output_shapes"
    value {
      list {
        shape {
        }
      }
    }
  }
  attr {
    key: "dtype"
    value {
      type: DT_FLOAT
    }
  }
  attr {
    key: "value"
    value {
      tensor {
        dtype: DT_FLOAT
        tensor_shape {
        }
        float_val: 2.0
      }
    }
  }
}
node {
  name: "pi_net_inter/gaussian_basis/pow_11"
  op: "Pow"
  input: "pi_net_inter/gaussian_basis/sub_11"
  input: "pi_net_inter/gaussian_basis/pow_11/y"
  attr {
    key: "T"
    value {
      type: DT_FLOAT
    }
  }
  attr {
    key: "_output_shapes"
    value {
      list {
        shape {
          dim {
            size: -1
          }
        }
      }
    }
  }
}
node {
  name: "pi_net_inter/gaussian_basis/mul_22/x"
  op: "Const"
  attr {
    key: "_output_shapes"
    value {
      list {
        shape {
        }
      }
    }
  }
  attr {
    key: "dtype"
    value {
      type: DT_FLOAT
    }
  }
  attr {
    key: "value"
    value {
      tensor {
        dtype: DT_FLOAT
        tensor_shape {
        }
        float_val: -3.0
      }
    }
  }
}
node {
  name: "pi_net_inter/gaussian_basis/mul_22"
  op: "Mul"
  input: "pi_net_inter/gaussian_basis/mul_22/x"
  input: "pi_net_inter/gaussian_basis/pow_11"
  attr {
    key: "T"
    value {
      type: DT_FLOAT
    }
  }
  attr {
    key: "_output_shapes"
    value {
      list {
        shape {
          dim {
            size: -1
          }
        }
      }
    }
  }
}
node {
  name: "pi_net_inter/gaussian_basis/Exp_11"
  op: "Exp"
  input: "pi_net_inter/gaussian_basis/mul_22"
  attr {
    key: "T"
    value {
      type: DT_FLOAT
    }
  }
  attr {
    key: "_output_shapes"
    value {
      list {
        shape {
          dim {
            size: -1
          }
        }
      }
    }
  }
}
node {
  name: "pi_net_inter/gaussian_basis/mul_23"
  op: "Mul"
  input: "pi_net_inter/gaussian_basis/Exp_11"
  input: "pi_net_inter/gaussian_basis/cutoff_func/mul_1"
  attr {
    key: "T"
    value {
      type: DT_FLOAT
    }
  }
  attr {
    key: "_output_shapes"
    value {
      list {
        shape {
          dim {
            size: -1
          }
        }
      }
    }
  }
}
node {
  name: "pi_net_inter/gaussian_basis/sub_12/y"
  op: "Const"
  attr {
    key: "_output_shapes"
    value {
      list {
        shape {
        }
      }
    }
  }
  attr {
    key: "dtype"
    value {
      type: DT_FLOAT
    }
  }
  attr {
    key: "value"
    value {
      tensor {
        dtype: DT_FLOAT
        tensor_shape {
        }
        float_val: 2.8421051502227783
      }
    }
  }
}
node {
  name: "pi_net_inter/gaussian_basis/sub_12"
  op: "Sub"
  input: "pi_net_inter/preprocess_layer/Reshape_1"
  input: "pi_net_inter/gaussian_basis/sub_12/y"
  attr {
    key: "T"
    value {
      type: DT_FLOAT
    }
  }
  attr {
    key: "_output_shapes"
    value {
      list {
        shape {
          dim {
            size: -1
          }
        }
      }
    }
  }
}
node {
  name: "pi_net_inter/gaussian_basis/pow_12/y"
  op: "Const"
  attr {
    key: "_output_shapes"
    value {
      list {
        shape {
        }
      }
    }
  }
  attr {
    key: "dtype"
    value {
      type: DT_FLOAT
    }
  }
  attr {
    key: "value"
    value {
      tensor {
        dtype: DT_FLOAT
        tensor_shape {
        }
        float_val: 2.0
      }
    }
  }
}
node {
  name: "pi_net_inter/gaussian_basis/pow_12"
  op: "Pow"
  input: "pi_net_inter/gaussian_basis/sub_12"
  input: "pi_net_inter/gaussian_basis/pow_12/y"
  attr {
    key: "T"
    value {
      type: DT_FLOAT
    }
  }
  attr {
    key: "_output_shapes"
    value {
      list {
        shape {
          dim {
            size: -1
          }
        }
      }
    }
  }
}
node {
  name: "pi_net_inter/gaussian_basis/mul_24/x"
  op: "Const"
  attr {
    key: "_output_shapes"
    value {
      list {
        shape {
        }
      }
    }
  }
  attr {
    key: "dtype"
    value {
      type: DT_FLOAT
    }
  }
  attr {
    key: "value"
    value {
      tensor {
        dtype: DT_FLOAT
        tensor_shape {
        }
        float_val: -3.0
      }
    }
  }
}
node {
  name: "pi_net_inter/gaussian_basis/mul_24"
  op: "Mul"
  input: "pi_net_inter/gaussian_basis/mul_24/x"
  input: "pi_net_inter/gaussian_basis/pow_12"
  attr {
    key: "T"
    value {
      type: DT_FLOAT
    }
  }
  attr {
    key: "_output_shapes"
    value {
      list {
        shape {
          dim {
            size: -1
          }
        }
      }
    }
  }
}
node {
  name: "pi_net_inter/gaussian_basis/Exp_12"
  op: "Exp"
  input: "pi_net_inter/gaussian_basis/mul_24"
  attr {
    key: "T"
    value {
      type: DT_FLOAT
    }
  }
  attr {
    key: "_output_shapes"
    value {
      list {
        shape {
          dim {
            size: -1
          }
        }
      }
    }
  }
}
node {
  name: "pi_net_inter/gaussian_basis/mul_25"
  op: "Mul"
  input: "pi_net_inter/gaussian_basis/Exp_12"
  input: "pi_net_inter/gaussian_basis/cutoff_func/mul_1"
  attr {
    key: "T"
    value {
      type: DT_FLOAT
    }
  }
  attr {
    key: "_output_shapes"
    value {
      list {
        shape {
          dim {
            size: -1
          }
        }
      }
    }
  }
}
node {
  name: "pi_net_inter/gaussian_basis/sub_13/y"
  op: "Const"
  attr {
    key: "_output_shapes"
    value {
      list {
        shape {
        }
      }
    }
  }
  attr {
    key: "dtype"
    value {
      type: DT_FLOAT
    }
  }
  attr {
    key: "value"
    value {
      tensor {
        dtype: DT_FLOAT
        tensor_shape {
        }
        float_val: 3.0789473056793213
      }
    }
  }
}
node {
  name: "pi_net_inter/gaussian_basis/sub_13"
  op: "Sub"
  input: "pi_net_inter/preprocess_layer/Reshape_1"
  input: "pi_net_inter/gaussian_basis/sub_13/y"
  attr {
    key: "T"
    value {
      type: DT_FLOAT
    }
  }
  attr {
    key: "_output_shapes"
    value {
      list {
        shape {
          dim {
            size: -1
          }
        }
      }
    }
  }
}
node {
  name: "pi_net_inter/gaussian_basis/pow_13/y"
  op: "Const"
  attr {
    key: "_output_shapes"
    value {
      list {
        shape {
        }
      }
    }
  }
  attr {
    key: "dtype"
    value {
      type: DT_FLOAT
    }
  }
  attr {
    key: "value"
    value {
      tensor {
        dtype: DT_FLOAT
        tensor_shape {
        }
        float_val: 2.0
      }
    }
  }
}
node {
  name: "pi_net_inter/gaussian_basis/pow_13"
  op: "Pow"
  input: "pi_net_inter/gaussian_basis/sub_13"
  input: "pi_net_inter/gaussian_basis/pow_13/y"
  attr {
    key: "T"
    value {
      type: DT_FLOAT
    }
  }
  attr {
    key: "_output_shapes"
    value {
      list {
        shape {
          dim {
            size: -1
          }
        }
      }
    }
  }
}
node {
  name: "pi_net_inter/gaussian_basis/mul_26/x"
  op: "Const"
  attr {
    key: "_output_shapes"
    value {
      list {
        shape {
        }
      }
    }
  }
  attr {
    key: "dtype"
    value {
      type: DT_FLOAT
    }
  }
  attr {
    key: "value"
    value {
      tensor {
        dtype: DT_FLOAT
        tensor_shape {
        }
        float_val: -3.0
      }
    }
  }
}
node {
  name: "pi_net_inter/gaussian_basis/mul_26"
  op: "Mul"
  input: "pi_net_inter/gaussian_basis/mul_26/x"
  input: "pi_net_inter/gaussian_basis/pow_13"
  attr {
    key: "T"
    value {
      type: DT_FLOAT
    }
  }
  attr {
    key: "_output_shapes"
    value {
      list {
        shape {
          dim {
            size: -1
          }
        }
      }
    }
  }
}
node {
  name: "pi_net_inter/gaussian_basis/Exp_13"
  op: "Exp"
  input: "pi_net_inter/gaussian_basis/mul_26"
  attr {
    key: "T"
    value {
      type: DT_FLOAT
    }
  }
  attr {
    key: "_output_shapes"
    value {
      list {
        shape {
          dim {
            size: -1
          }
        }
      }
    }
  }
}
node {
  name: "pi_net_inter/gaussian_basis/mul_27"
  op: "Mul"
  input: "pi_net_inter/gaussian_basis/Exp_13"
  input: "pi_net_inter/gaussian_basis/cutoff_func/mul_1"
  attr {
    key: "T"
    value {
      type: DT_FLOAT
    }
  }
  attr {
    key: "_output_shapes"
    value {
      list {
        shape {
          dim {
            size: -1
          }
        }
      }
    }
  }
}
node {
  name: "pi_net_inter/gaussian_basis/sub_14/y"
  op: "Const"
  attr {
    key: "_output_shapes"
    value {
      list {
        shape {
        }
      }
    }
  }
  attr {
    key: "dtype"
    value {
      type: DT_FLOAT
    }
  }
  attr {
    key: "value"
    value {
      tensor {
        dtype: DT_FLOAT
        tensor_shape {
        }
        float_val: 3.3157894611358643
      }
    }
  }
}
node {
  name: "pi_net_inter/gaussian_basis/sub_14"
  op: "Sub"
  input: "pi_net_inter/preprocess_layer/Reshape_1"
  input: "pi_net_inter/gaussian_basis/sub_14/y"
  attr {
    key: "T"
    value {
      type: DT_FLOAT
    }
  }
  attr {
    key: "_output_shapes"
    value {
      list {
        shape {
          dim {
            size: -1
          }
        }
      }
    }
  }
}
node {
  name: "pi_net_inter/gaussian_basis/pow_14/y"
  op: "Const"
  attr {
    key: "_output_shapes"
    value {
      list {
        shape {
        }
      }
    }
  }
  attr {
    key: "dtype"
    value {
      type: DT_FLOAT
    }
  }
  attr {
    key: "value"
    value {
      tensor {
        dtype: DT_FLOAT
        tensor_shape {
        }
        float_val: 2.0
      }
    }
  }
}
node {
  name: "pi_net_inter/gaussian_basis/pow_14"
  op: "Pow"
  input: "pi_net_inter/gaussian_basis/sub_14"
  input: "pi_net_inter/gaussian_basis/pow_14/y"
  attr {
    key: "T"
    value {
      type: DT_FLOAT
    }
  }
  attr {
    key: "_output_shapes"
    value {
      list {
        shape {
          dim {
            size: -1
          }
        }
      }
    }
  }
}
node {
  name: "pi_net_inter/gaussian_basis/mul_28/x"
  op: "Const"
  attr {
    key: "_output_shapes"
    value {
      list {
        shape {
        }
      }
    }
  }
  attr {
    key: "dtype"
    value {
      type: DT_FLOAT
    }
  }
  attr {
    key: "value"
    value {
      tensor {
        dtype: DT_FLOAT
        tensor_shape {
        }
        float_val: -3.0
      }
    }
  }
}
node {
  name: "pi_net_inter/gaussian_basis/mul_28"
  op: "Mul"
  input: "pi_net_inter/gaussian_basis/mul_28/x"
  input: "pi_net_inter/gaussian_basis/pow_14"
  attr {
    key: "T"
    value {
      type: DT_FLOAT
    }
  }
  attr {
    key: "_output_shapes"
    value {
      list {
        shape {
          dim {
            size: -1
          }
        }
      }
    }
  }
}
node {
  name: "pi_net_inter/gaussian_basis/Exp_14"
  op: "Exp"
  input: "pi_net_inter/gaussian_basis/mul_28"
  attr {
    key: "T"
    value {
      type: DT_FLOAT
    }
  }
  attr {
    key: "_output_shapes"
    value {
      list {
        shape {
          dim {
            size: -1
          }
        }
      }
    }
  }
}
node {
  name: "pi_net_inter/gaussian_basis/mul_29"
  op: "Mul"
  input: "pi_net_inter/gaussian_basis/Exp_14"
  input: "pi_net_inter/gaussian_basis/cutoff_func/mul_1"
  attr {
    key: "T"
    value {
      type: DT_FLOAT
    }
  }
  attr {
    key: "_output_shapes"
    value {
      list {
        shape {
          dim {
            size: -1
          }
        }
      }
    }
  }
}
node {
  name: "pi_net_inter/gaussian_basis/sub_15/y"
  op: "Const"
  attr {
    key: "_output_shapes"
    value {
      list {
        shape {
        }
      }
    }
  }
  attr {
    key: "dtype"
    value {
      type: DT_FLOAT
    }
  }
  attr {
    key: "value"
    value {
      tensor {
        dtype: DT_FLOAT
        tensor_shape {
        }
        float_val: 3.5526316165924072
      }
    }
  }
}
node {
  name: "pi_net_inter/gaussian_basis/sub_15"
  op: "Sub"
  input: "pi_net_inter/preprocess_layer/Reshape_1"
  input: "pi_net_inter/gaussian_basis/sub_15/y"
  attr {
    key: "T"
    value {
      type: DT_FLOAT
    }
  }
  attr {
    key: "_output_shapes"
    value {
      list {
        shape {
          dim {
            size: -1
          }
        }
      }
    }
  }
}
node {
  name: "pi_net_inter/gaussian_basis/pow_15/y"
  op: "Const"
  attr {
    key: "_output_shapes"
    value {
      list {
        shape {
        }
      }
    }
  }
  attr {
    key: "dtype"
    value {
      type: DT_FLOAT
    }
  }
  attr {
    key: "value"
    value {
      tensor {
        dtype: DT_FLOAT
        tensor_shape {
        }
        float_val: 2.0
      }
    }
  }
}
node {
  name: "pi_net_inter/gaussian_basis/pow_15"
  op: "Pow"
  input: "pi_net_inter/gaussian_basis/sub_15"
  input: "pi_net_inter/gaussian_basis/pow_15/y"
  attr {
    key: "T"
    value {
      type: DT_FLOAT
    }
  }
  attr {
    key: "_output_shapes"
    value {
      list {
        shape {
          dim {
            size: -1
          }
        }
      }
    }
  }
}
node {
  name: "pi_net_inter/gaussian_basis/mul_30/x"
  op: "Const"
  attr {
    key: "_output_shapes"
    value {
      list {
        shape {
        }
      }
    }
  }
  attr {
    key: "dtype"
    value {
      type: DT_FLOAT
    }
  }
  attr {
    key: "value"
    value {
      tensor {
        dtype: DT_FLOAT
        tensor_shape {
        }
        float_val: -3.0
      }
    }
  }
}
node {
  name: "pi_net_inter/gaussian_basis/mul_30"
  op: "Mul"
  input: "pi_net_inter/gaussian_basis/mul_30/x"
  input: "pi_net_inter/gaussian_basis/pow_15"
  attr {
    key: "T"
    value {
      type: DT_FLOAT
    }
  }
  attr {
    key: "_output_shapes"
    value {
      list {
        shape {
          dim {
            size: -1
          }
        }
      }
    }
  }
}
node {
  name: "pi_net_inter/gaussian_basis/Exp_15"
  op: "Exp"
  input: "pi_net_inter/gaussian_basis/mul_30"
  attr {
    key: "T"
    value {
      type: DT_FLOAT
    }
  }
  attr {
    key: "_output_shapes"
    value {
      list {
        shape {
          dim {
            size: -1
          }
        }
      }
    }
  }
}
node {
  name: "pi_net_inter/gaussian_basis/mul_31"
  op: "Mul"
  input: "pi_net_inter/gaussian_basis/Exp_15"
  input: "pi_net_inter/gaussian_basis/cutoff_func/mul_1"
  attr {
    key: "T"
    value {
      type: DT_FLOAT
    }
  }
  attr {
    key: "_output_shapes"
    value {
      list {
        shape {
          dim {
            size: -1
          }
        }
      }
    }
  }
}
node {
  name: "pi_net_inter/gaussian_basis/sub_16/y"
  op: "Const"
  attr {
    key: "_output_shapes"
    value {
      list {
        shape {
        }
      }
    }
  }
  attr {
    key: "dtype"
    value {
      type: DT_FLOAT
    }
  }
  attr {
    key: "value"
    value {
      tensor {
        dtype: DT_FLOAT
        tensor_shape {
        }
        float_val: 3.78947377204895
      }
    }
  }
}
node {
  name: "pi_net_inter/gaussian_basis/sub_16"
  op: "Sub"
  input: "pi_net_inter/preprocess_layer/Reshape_1"
  input: "pi_net_inter/gaussian_basis/sub_16/y"
  attr {
    key: "T"
    value {
      type: DT_FLOAT
    }
  }
  attr {
    key: "_output_shapes"
    value {
      list {
        shape {
          dim {
            size: -1
          }
        }
      }
    }
  }
}
node {
  name: "pi_net_inter/gaussian_basis/pow_16/y"
  op: "Const"
  attr {
    key: "_output_shapes"
    value {
      list {
        shape {
        }
      }
    }
  }
  attr {
    key: "dtype"
    value {
      type: DT_FLOAT
    }
  }
  attr {
    key: "value"
    value {
      tensor {
        dtype: DT_FLOAT
        tensor_shape {
        }
        float_val: 2.0
      }
    }
  }
}
node {
  name: "pi_net_inter/gaussian_basis/pow_16"
  op: "Pow"
  input: "pi_net_inter/gaussian_basis/sub_16"
  input: "pi_net_inter/gaussian_basis/pow_16/y"
  attr {
    key: "T"
    value {
      type: DT_FLOAT
    }
  }
  attr {
    key: "_output_shapes"
    value {
      list {
        shape {
          dim {
            size: -1
          }
        }
      }
    }
  }
}
node {
  name: "pi_net_inter/gaussian_basis/mul_32/x"
  op: "Const"
  attr {
    key: "_output_shapes"
    value {
      list {
        shape {
        }
      }
    }
  }
  attr {
    key: "dtype"
    value {
      type: DT_FLOAT
    }
  }
  attr {
    key: "value"
    value {
      tensor {
        dtype: DT_FLOAT
        tensor_shape {
        }
        float_val: -3.0
      }
    }
  }
}
node {
  name: "pi_net_inter/gaussian_basis/mul_32"
  op: "Mul"
  input: "pi_net_inter/gaussian_basis/mul_32/x"
  input: "pi_net_inter/gaussian_basis/pow_16"
  attr {
    key: "T"
    value {
      type: DT_FLOAT
    }
  }
  attr {
    key: "_output_shapes"
    value {
      list {
        shape {
          dim {
            size: -1
          }
        }
      }
    }
  }
}
node {
  name: "pi_net_inter/gaussian_basis/Exp_16"
  op: "Exp"
  input: "pi_net_inter/gaussian_basis/mul_32"
  attr {
    key: "T"
    value {
      type: DT_FLOAT
    }
  }
  attr {
    key: "_output_shapes"
    value {
      list {
        shape {
          dim {
            size: -1
          }
        }
      }
    }
  }
}
node {
  name: "pi_net_inter/gaussian_basis/mul_33"
  op: "Mul"
  input: "pi_net_inter/gaussian_basis/Exp_16"
  input: "pi_net_inter/gaussian_basis/cutoff_func/mul_1"
  attr {
    key: "T"
    value {
      type: DT_FLOAT
    }
  }
  attr {
    key: "_output_shapes"
    value {
      list {
        shape {
          dim {
            size: -1
          }
        }
      }
    }
  }
}
node {
  name: "pi_net_inter/gaussian_basis/sub_17/y"
  op: "Const"
  attr {
    key: "_output_shapes"
    value {
      list {
        shape {
        }
      }
    }
  }
  attr {
    key: "dtype"
    value {
      type: DT_FLOAT
    }
  }
  attr {
    key: "value"
    value {
      tensor {
        dtype: DT_FLOAT
        tensor_shape {
        }
        float_val: 4.026315689086914
      }
    }
  }
}
node {
  name: "pi_net_inter/gaussian_basis/sub_17"
  op: "Sub"
  input: "pi_net_inter/preprocess_layer/Reshape_1"
  input: "pi_net_inter/gaussian_basis/sub_17/y"
  attr {
    key: "T"
    value {
      type: DT_FLOAT
    }
  }
  attr {
    key: "_output_shapes"
    value {
      list {
        shape {
          dim {
            size: -1
          }
        }
      }
    }
  }
}
node {
  name: "pi_net_inter/gaussian_basis/pow_17/y"
  op: "Const"
  attr {
    key: "_output_shapes"
    value {
      list {
        shape {
        }
      }
    }
  }
  attr {
    key: "dtype"
    value {
      type: DT_FLOAT
    }
  }
  attr {
    key: "value"
    value {
      tensor {
        dtype: DT_FLOAT
        tensor_shape {
        }
        float_val: 2.0
      }
    }
  }
}
node {
  name: "pi_net_inter/gaussian_basis/pow_17"
  op: "Pow"
  input: "pi_net_inter/gaussian_basis/sub_17"
  input: "pi_net_inter/gaussian_basis/pow_17/y"
  attr {
    key: "T"
    value {
      type: DT_FLOAT
    }
  }
  attr {
    key: "_output_shapes"
    value {
      list {
        shape {
          dim {
            size: -1
          }
        }
      }
    }
  }
}
node {
  name: "pi_net_inter/gaussian_basis/mul_34/x"
  op: "Const"
  attr {
    key: "_output_shapes"
    value {
      list {
        shape {
        }
      }
    }
  }
  attr {
    key: "dtype"
    value {
      type: DT_FLOAT
    }
  }
  attr {
    key: "value"
    value {
      tensor {
        dtype: DT_FLOAT
        tensor_shape {
        }
        float_val: -3.0
      }
    }
  }
}
node {
  name: "pi_net_inter/gaussian_basis/mul_34"
  op: "Mul"
  input: "pi_net_inter/gaussian_basis/mul_34/x"
  input: "pi_net_inter/gaussian_basis/pow_17"
  attr {
    key: "T"
    value {
      type: DT_FLOAT
    }
  }
  attr {
    key: "_output_shapes"
    value {
      list {
        shape {
          dim {
            size: -1
          }
        }
      }
    }
  }
}
node {
  name: "pi_net_inter/gaussian_basis/Exp_17"
  op: "Exp"
  input: "pi_net_inter/gaussian_basis/mul_34"
  attr {
    key: "T"
    value {
      type: DT_FLOAT
    }
  }
  attr {
    key: "_output_shapes"
    value {
      list {
        shape {
          dim {
            size: -1
          }
        }
      }
    }
  }
}
node {
  name: "pi_net_inter/gaussian_basis/mul_35"
  op: "Mul"
  input: "pi_net_inter/gaussian_basis/Exp_17"
  input: "pi_net_inter/gaussian_basis/cutoff_func/mul_1"
  attr {
    key: "T"
    value {
      type: DT_FLOAT
    }
  }
  attr {
    key: "_output_shapes"
    value {
      list {
        shape {
          dim {
            size: -1
          }
        }
      }
    }
  }
}
node {
  name: "pi_net_inter/gaussian_basis/sub_18/y"
  op: "Const"
  attr {
    key: "_output_shapes"
    value {
      list {
        shape {
        }
      }
    }
  }
  attr {
    key: "dtype"
    value {
      type: DT_FLOAT
    }
  }
  attr {
    key: "value"
    value {
      tensor {
        dtype: DT_FLOAT
        tensor_shape {
        }
        float_val: 4.263157844543457
      }
    }
  }
}
node {
  name: "pi_net_inter/gaussian_basis/sub_18"
  op: "Sub"
  input: "pi_net_inter/preprocess_layer/Reshape_1"
  input: "pi_net_inter/gaussian_basis/sub_18/y"
  attr {
    key: "T"
    value {
      type: DT_FLOAT
    }
  }
  attr {
    key: "_output_shapes"
    value {
      list {
        shape {
          dim {
            size: -1
          }
        }
      }
    }
  }
}
node {
  name: "pi_net_inter/gaussian_basis/pow_18/y"
  op: "Const"
  attr {
    key: "_output_shapes"
    value {
      list {
        shape {
        }
      }
    }
  }
  attr {
    key: "dtype"
    value {
      type: DT_FLOAT
    }
  }
  attr {
    key: "value"
    value {
      tensor {
        dtype: DT_FLOAT
        tensor_shape {
        }
        float_val: 2.0
      }
    }
  }
}
node {
  name: "pi_net_inter/gaussian_basis/pow_18"
  op: "Pow"
  input: "pi_net_inter/gaussian_basis/sub_18"
  input: "pi_net_inter/gaussian_basis/pow_18/y"
  attr {
    key: "T"
    value {
      type: DT_FLOAT
    }
  }
  attr {
    key: "_output_shapes"
    value {
      list {
        shape {
          dim {
            size: -1
          }
        }
      }
    }
  }
}
node {
  name: "pi_net_inter/gaussian_basis/mul_36/x"
  op: "Const"
  attr {
    key: "_output_shapes"
    value {
      list {
        shape {
        }
      }
    }
  }
  attr {
    key: "dtype"
    value {
      type: DT_FLOAT
    }
  }
  attr {
    key: "value"
    value {
      tensor {
        dtype: DT_FLOAT
        tensor_shape {
        }
        float_val: -3.0
      }
    }
  }
}
node {
  name: "pi_net_inter/gaussian_basis/mul_36"
  op: "Mul"
  input: "pi_net_inter/gaussian_basis/mul_36/x"
  input: "pi_net_inter/gaussian_basis/pow_18"
  attr {
    key: "T"
    value {
      type: DT_FLOAT
    }
  }
  attr {
    key: "_output_shapes"
    value {
      list {
        shape {
          dim {
            size: -1
          }
        }
      }
    }
  }
}
node {
  name: "pi_net_inter/gaussian_basis/Exp_18"
  op: "Exp"
  input: "pi_net_inter/gaussian_basis/mul_36"
  attr {
    key: "T"
    value {
      type: DT_FLOAT
    }
  }
  attr {
    key: "_output_shapes"
    value {
      list {
        shape {
          dim {
            size: -1
          }
        }
      }
    }
  }
}
node {
  name: "pi_net_inter/gaussian_basis/mul_37"
  op: "Mul"
  input: "pi_net_inter/gaussian_basis/Exp_18"
  input: "pi_net_inter/gaussian_basis/cutoff_func/mul_1"
  attr {
    key: "T"
    value {
      type: DT_FLOAT
    }
  }
  attr {
    key: "_output_shapes"
    value {
      list {
        shape {
          dim {
            size: -1
          }
        }
      }
    }
  }
}
node {
  name: "pi_net_inter/gaussian_basis/sub_19/y"
  op: "Const"
  attr {
    key: "_output_shapes"
    value {
      list {
        shape {
        }
      }
    }
  }
  attr {
    key: "dtype"
    value {
      type: DT_FLOAT
    }
  }
  attr {
    key: "value"
    value {
      tensor {
        dtype: DT_FLOAT
        tensor_shape {
        }
        float_val: 4.5
      }
    }
  }
}
node {
  name: "pi_net_inter/gaussian_basis/sub_19"
  op: "Sub"
  input: "pi_net_inter/preprocess_layer/Reshape_1"
  input: "pi_net_inter/gaussian_basis/sub_19/y"
  attr {
    key: "T"
    value {
      type: DT_FLOAT
    }
  }
  attr {
    key: "_output_shapes"
    value {
      list {
        shape {
          dim {
            size: -1
          }
        }
      }
    }
  }
}
node {
  name: "pi_net_inter/gaussian_basis/pow_19/y"
  op: "Const"
  attr {
    key: "_output_shapes"
    value {
      list {
        shape {
        }
      }
    }
  }
  attr {
    key: "dtype"
    value {
      type: DT_FLOAT
    }
  }
  attr {
    key: "value"
    value {
      tensor {
        dtype: DT_FLOAT
        tensor_shape {
        }
        float_val: 2.0
      }
    }
  }
}
node {
  name: "pi_net_inter/gaussian_basis/pow_19"
  op: "Pow"
  input: "pi_net_inter/gaussian_basis/sub_19"
  input: "pi_net_inter/gaussian_basis/pow_19/y"
  attr {
    key: "T"
    value {
      type: DT_FLOAT
    }
  }
  attr {
    key: "_output_shapes"
    value {
      list {
        shape {
          dim {
            size: -1
          }
        }
      }
    }
  }
}
node {
  name: "pi_net_inter/gaussian_basis/mul_38/x"
  op: "Const"
  attr {
    key: "_output_shapes"
    value {
      list {
        shape {
        }
      }
    }
  }
  attr {
    key: "dtype"
    value {
      type: DT_FLOAT
    }
  }
  attr {
    key: "value"
    value {
      tensor {
        dtype: DT_FLOAT
        tensor_shape {
        }
        float_val: -3.0
      }
    }
  }
}
node {
  name: "pi_net_inter/gaussian_basis/mul_38"
  op: "Mul"
  input: "pi_net_inter/gaussian_basis/mul_38/x"
  input: "pi_net_inter/gaussian_basis/pow_19"
  attr {
    key: "T"
    value {
      type: DT_FLOAT
    }
  }
  attr {
    key: "_output_shapes"
    value {
      list {
        shape {
          dim {
            size: -1
          }
        }
      }
    }
  }
}
node {
  name: "pi_net_inter/gaussian_basis/Exp_19"
  op: "Exp"
  input: "pi_net_inter/gaussian_basis/mul_38"
  attr {
    key: "T"
    value {
      type: DT_FLOAT
    }
  }
  attr {
    key: "_output_shapes"
    value {
      list {
        shape {
          dim {
            size: -1
          }
        }
      }
    }
  }
}
node {
  name: "pi_net_inter/gaussian_basis/mul_39"
  op: "Mul"
  input: "pi_net_inter/gaussian_basis/Exp_19"
  input: "pi_net_inter/gaussian_basis/cutoff_func/mul_1"
  attr {
    key: "T"
    value {
      type: DT_FLOAT
    }
  }
  attr {
    key: "_output_shapes"
    value {
      list {
        shape {
          dim {
            size: -1
          }
        }
      }
    }
  }
}
node {
  name: "pi_net_inter/gaussian_basis/stack"
  op: "Pack"
  input: "pi_net_inter/gaussian_basis/mul_1"
  input: "pi_net_inter/gaussian_basis/mul_3"
  input: "pi_net_inter/gaussian_basis/mul_5"
  input: "pi_net_inter/gaussian_basis/mul_7"
  input: "pi_net_inter/gaussian_basis/mul_9"
  input: "pi_net_inter/gaussian_basis/mul_11"
  input: "pi_net_inter/gaussian_basis/mul_13"
  input: "pi_net_inter/gaussian_basis/mul_15"
  input: "pi_net_inter/gaussian_basis/mul_17"
  input: "pi_net_inter/gaussian_basis/mul_19"
  input: "pi_net_inter/gaussian_basis/mul_21"
  input: "pi_net_inter/gaussian_basis/mul_23"
  input: "pi_net_inter/gaussian_basis/mul_25"
  input: "pi_net_inter/gaussian_basis/mul_27"
  input: "pi_net_inter/gaussian_basis/mul_29"
  input: "pi_net_inter/gaussian_basis/mul_31"
  input: "pi_net_inter/gaussian_basis/mul_33"
  input: "pi_net_inter/gaussian_basis/mul_35"
  input: "pi_net_inter/gaussian_basis/mul_37"
  input: "pi_net_inter/gaussian_basis/mul_39"
  attr {
    key: "N"
    value {
      i: 20
    }
  }
  attr {
    key: "T"
    value {
      type: DT_FLOAT
    }
  }
  attr {
    key: "_output_shapes"
    value {
      list {
        shape {
          dim {
            size: -1
          }
          dim {
            size: 20
          }
        }
      }
    }
  }
  attr {
    key: "axis"
    value {
      i: 1
    }
  }
}
node {
  name: "pi_net_inter/strided_slice/stack"
  op: "Const"
  attr {
    key: "_output_shapes"
    value {
      list {
        shape {
          dim {
            size: 3
          }
        }
      }
    }
  }
  attr {
    key: "dtype"
    value {
      type: DT_INT32
    }
  }
  attr {
    key: "value"
    value {
      tensor {
        dtype: DT_INT32
        tensor_shape {
          dim {
            size: 3
          }
        }
        tensor_content: "\000\000\000\000\000\000\000\000\000\000\000\000"
      }
    }
  }
}
node {
  name: "pi_net_inter/strided_slice/stack_1"
  op: "Const"
  attr {
    key: "_output_shapes"
    value {
      list {
        shape {
          dim {
            size: 3
          }
        }
      }
    }
  }
  attr {
    key: "dtype"
    value {
      type: DT_INT32
    }
  }
  attr {
    key: "value"
    value {
      tensor {
        dtype: DT_INT32
        tensor_shape {
          dim {
            size: 3
          }
        }
        tensor_content: "\000\000\000\000\000\000\000\000\000\000\000\000"
      }
    }
  }
}
node {
  name: "pi_net_inter/strided_slice/stack_2"
  op: "Const"
  attr {
    key: "_output_shapes"
    value {
      list {
        shape {
          dim {
            size: 3
          }
        }
      }
    }
  }
  attr {
    key: "dtype"
    value {
      type: DT_INT32
    }
  }
  attr {
    key: "value"
    value {
      tensor {
        dtype: DT_INT32
        tensor_shape {
          dim {
            size: 3
          }
        }
        tensor_content: "\001\000\000\000\001\000\000\000\001\000\000\000"
      }
    }
  }
}
node {
  name: "pi_net_inter/strided_slice"
  op: "StridedSlice"
  input: "pi_net_inter/gaussian_basis/stack"
  input: "pi_net_inter/strided_slice/stack"
  input: "pi_net_inter/strided_slice/stack_1"
  input: "pi_net_inter/strided_slice/stack_2"
  attr {
    key: "Index"
    value {
      type: DT_INT32
    }
  }
  attr {
    key: "T"
    value {
      type: DT_FLOAT
    }
  }
  attr {
    key: "_output_shapes"
    value {
      list {
        shape {
          dim {
            size: -1
          }
          dim {
            size: 1
          }
          dim {
            size: 20
          }
        }
      }
    }
  }
  attr {
    key: "begin_mask"
    value {
      i: 5
    }
  }
  attr {
    key: "ellipsis_mask"
    value {
      i: 0
    }
  }
  attr {
    key: "end_mask"
    value {
      i: 5
    }
  }
  attr {
    key: "new_axis_mask"
    value {
      i: 2
    }
  }
  attr {
    key: "shrink_axis_mask"
    value {
      i: 0
    }
  }
}
node {
  name: "pi_net_inter/gc_block/pi_layer/strided_slice/stack"
  op: "Const"
  attr {
    key: "_output_shapes"
    value {
      list {
        shape {
          dim {
            size: 2
          }
        }
      }
    }
  }
  attr {
    key: "dtype"
    value {
      type: DT_INT32
    }
  }
  attr {
    key: "value"
    value {
      tensor {
        dtype: DT_INT32
        tensor_shape {
          dim {
            size: 2
          }
        }
        tensor_content: "\000\000\000\000\000\000\000\000"
      }
    }
  }
}
node {
  name: "pi_net_inter/gc_block/pi_layer/strided_slice/stack_1"
  op: "Const"
  attr {
    key: "_output_shapes"
    value {
      list {
        shape {
          dim {
            size: 2
          }
        }
      }
    }
  }
  attr {
    key: "dtype"
    value {
      type: DT_INT32
    }
  }
  attr {
    key: "value"
    value {
      tensor {
        dtype: DT_INT32
        tensor_shape {
          dim {
            size: 2
          }
        }
        tensor_content: "\000\000\000\000\001\000\000\000"
      }
    }
  }
}
node {
  name: "pi_net_inter/gc_block/pi_layer/strided_slice/stack_2"
  op: "Const"
  attr {
    key: "_output_shapes"
    value {
      list {
        shape {
          dim {
            size: 2
          }
        }
      }
    }
  }
  attr {
    key: "dtype"
    value {
      type: DT_INT32
    }
  }
  attr {
    key: "value"
    value {
      tensor {
        dtype: DT_INT32
        tensor_shape {
          dim {
            size: 2
          }
        }
        tensor_content: "\001\000\000\000\001\000\000\000"
      }
    }
  }
}
node {
  name: "pi_net_inter/gc_block/pi_layer/strided_slice"
  op: "StridedSlice"
  input: "IteratorGetNext:5"
  input: "pi_net_inter/gc_block/pi_layer/strided_slice/stack"
  input: "pi_net_inter/gc_block/pi_layer/strided_slice/stack_1"
  input: "pi_net_inter/gc_block/pi_layer/strided_slice/stack_2"
  attr {
    key: "Index"
    value {
      type: DT_INT32
    }
  }
  attr {
    key: "T"
    value {
      type: DT_INT32
    }
  }
  attr {
    key: "_output_shapes"
    value {
      list {
        shape {
          dim {
            size: -1
          }
        }
      }
    }
  }
  attr {
    key: "begin_mask"
    value {
      i: 1
    }
  }
  attr {
    key: "ellipsis_mask"
    value {
      i: 0
    }
  }
  attr {
    key: "end_mask"
    value {
      i: 1
    }
  }
  attr {
    key: "new_axis_mask"
    value {
      i: 0
    }
  }
  attr {
    key: "shrink_axis_mask"
    value {
      i: 2
    }
  }
}
node {
  name: "pi_net_inter/gc_block/pi_layer/strided_slice_1/stack"
  op: "Const"
  attr {
    key: "_output_shapes"
    value {
      list {
        shape {
          dim {
            size: 2
          }
        }
      }
    }
  }
  attr {
    key: "dtype"
    value {
      type: DT_INT32
    }
  }
  attr {
    key: "value"
    value {
      tensor {
        dtype: DT_INT32
        tensor_shape {
          dim {
            size: 2
          }
        }
        tensor_content: "\000\000\000\000\001\000\000\000"
      }
    }
  }
}
node {
  name: "pi_net_inter/gc_block/pi_layer/strided_slice_1/stack_1"
  op: "Const"
  attr {
    key: "_output_shapes"
    value {
      list {
        shape {
          dim {
            size: 2
          }
        }
      }
    }
  }
  attr {
    key: "dtype"
    value {
      type: DT_INT32
    }
  }
  attr {
    key: "value"
    value {
      tensor {
        dtype: DT_INT32
        tensor_shape {
          dim {
            size: 2
          }
        }
        tensor_content: "\000\000\000\000\002\000\000\000"
      }
    }
  }
}
node {
  name: "pi_net_inter/gc_block/pi_layer/strided_slice_1/stack_2"
  op: "Const"
  attr {
    key: "_output_shapes"
    value {
      list {
        shape {
          dim {
            size: 2
          }
        }
      }
    }
  }
  attr {
    key: "dtype"
    value {
      type: DT_INT32
    }
  }
  attr {
    key: "value"
    value {
      tensor {
        dtype: DT_INT32
        tensor_shape {
          dim {
            size: 2
          }
        }
        tensor_content: "\001\000\000\000\001\000\000\000"
      }
    }
  }
}
node {
  name: "pi_net_inter/gc_block/pi_layer/strided_slice_1"
  op: "StridedSlice"
  input: "IteratorGetNext:5"
  input: "pi_net_inter/gc_block/pi_layer/strided_slice_1/stack"
  input: "pi_net_inter/gc_block/pi_layer/strided_slice_1/stack_1"
  input: "pi_net_inter/gc_block/pi_layer/strided_slice_1/stack_2"
  attr {
    key: "Index"
    value {
      type: DT_INT32
    }
  }
  attr {
    key: "T"
    value {
      type: DT_INT32
    }
  }
  attr {
    key: "_output_shapes"
    value {
      list {
        shape {
          dim {
            size: -1
          }
        }
      }
    }
  }
  attr {
    key: "begin_mask"
    value {
      i: 1
    }
  }
  attr {
    key: "ellipsis_mask"
    value {
      i: 0
    }
  }
  attr {
    key: "end_mask"
    value {
      i: 1
    }
  }
  attr {
    key: "new_axis_mask"
    value {
      i: 0
    }
  }
  attr {
    key: "shrink_axis_mask"
    value {
      i: 2
    }
  }
}
node {
  name: "pi_net_inter/gc_block/pi_layer/GatherV2/axis"
  op: "Const"
  attr {
    key: "_output_shapes"
    value {
      list {
        shape {
        }
      }
    }
  }
  attr {
    key: "dtype"
    value {
      type: DT_INT32
    }
  }
  attr {
    key: "value"
    value {
      tensor {
        dtype: DT_INT32
        tensor_shape {
        }
        int_val: 0
      }
    }
  }
}
node {
  name: "pi_net_inter/gc_block/pi_layer/GatherV2"
  op: "GatherV2"
  input: "IteratorGetNext:6"
  input: "pi_net_inter/gc_block/pi_layer/strided_slice"
  input: "pi_net_inter/gc_block/pi_layer/GatherV2/axis"
  attr {
    key: "Taxis"
    value {
      type: DT_INT32
    }
  }
  attr {
    key: "Tindices"
    value {
      type: DT_INT32
    }
  }
  attr {
    key: "Tparams"
    value {
      type: DT_FLOAT
    }
  }
  attr {
    key: "_output_shapes"
    value {
      list {
        shape {
          dim {
            size: -1
          }
          dim {
            size: 6
          }
        }
      }
    }
  }
  attr {
    key: "batch_dims"
    value {
      i: 0
    }
  }
}
node {
  name: "pi_net_inter/gc_block/pi_layer/GatherV2_1/axis"
  op: "Const"
  attr {
    key: "_output_shapes"
    value {
      list {
        shape {
        }
      }
    }
  }
  attr {
    key: "dtype"
    value {
      type: DT_INT32
    }
  }
  attr {
    key: "value"
    value {
      tensor {
        dtype: DT_INT32
        tensor_shape {
        }
        int_val: 0
      }
    }
  }
}
node {
  name: "pi_net_inter/gc_block/pi_layer/GatherV2_1"
  op: "GatherV2"
  input: "IteratorGetNext:6"
  input: "pi_net_inter/gc_block/pi_layer/strided_slice_1"
  input: "pi_net_inter/gc_block/pi_layer/GatherV2_1/axis"
  attr {
    key: "Taxis"
    value {
      type: DT_INT32
    }
  }
  attr {
    key: "Tindices"
    value {
      type: DT_INT32
    }
  }
  attr {
    key: "Tparams"
    value {
      type: DT_FLOAT
    }
  }
  attr {
    key: "_output_shapes"
    value {
      list {
        shape {
          dim {
            size: -1
          }
          dim {
            size: 6
          }
        }
      }
    }
  }
  attr {
    key: "batch_dims"
    value {
      i: 0
    }
  }
}
node {
  name: "pi_net_inter/gc_block/pi_layer/concat/axis"
  op: "Const"
  attr {
    key: "_output_shapes"
    value {
      list {
        shape {
        }
      }
    }
  }
  attr {
    key: "dtype"
    value {
      type: DT_INT32
    }
  }
  attr {
    key: "value"
    value {
      tensor {
        dtype: DT_INT32
        tensor_shape {
        }
        int_val: -1
      }
    }
  }
}
node {
  name: "pi_net_inter/gc_block/pi_layer/concat"
  op: "ConcatV2"
  input: "pi_net_inter/gc_block/pi_layer/GatherV2"
  input: "pi_net_inter/gc_block/pi_layer/GatherV2_1"
  input: "pi_net_inter/gc_block/pi_layer/concat/axis"
  attr {
    key: "N"
    value {
      i: 2
    }
  }
  attr {
    key: "T"
    value {
      type: DT_FLOAT
    }
  }
  attr {
    key: "Tidx"
    value {
      type: DT_INT32
    }
  }
  attr {
    key: "_output_shapes"
    value {
      list {
        shape {
          dim {
            size: -1
          }
          dim {
            size: 12
          }
        }
      }
    }
  }
}
node {
  name: "pi_net_inter/gc_block/pi_layer/ff_layer_20/dense_46/kernel/Initializer/random_uniform/shape"
  op: "Const"
  attr {
    key: "_class"
    value {
      list {
        s: "loc:@pi_net_inter/gc_block/pi_layer/ff_layer_20/dense_46/kernel"
      }
    }
  }
  attr {
    key: "_output_shapes"
    value {
      list {
        shape {
          dim {
            size: 2
          }
        }
      }
    }
  }
  attr {
    key: "dtype"
    value {
      type: DT_INT32
    }
  }
  attr {
    key: "value"
    value {
      tensor {
        dtype: DT_INT32
        tensor_shape {
          dim {
            size: 2
          }
        }
        tensor_content: "\014\000\000\000\200\002\000\000"
      }
    }
  }
}
node {
  name: "pi_net_inter/gc_block/pi_layer/ff_layer_20/dense_46/kernel/Initializer/random_uniform/min"
  op: "Const"
  attr {
    key: "_class"
    value {
      list {
        s: "loc:@pi_net_inter/gc_block/pi_layer/ff_layer_20/dense_46/kernel"
      }
    }
  }
  attr {
    key: "_output_shapes"
    value {
      list {
        shape {
        }
      }
    }
  }
  attr {
    key: "dtype"
    value {
      type: DT_FLOAT
    }
  }
  attr {
    key: "value"
    value {
      tensor {
        dtype: DT_FLOAT
        tensor_shape {
        }
        float_val: -0.09592942148447037
      }
    }
  }
}
node {
  name: "pi_net_inter/gc_block/pi_layer/ff_layer_20/dense_46/kernel/Initializer/random_uniform/max"
  op: "Const"
  attr {
    key: "_class"
    value {
      list {
        s: "loc:@pi_net_inter/gc_block/pi_layer/ff_layer_20/dense_46/kernel"
      }
    }
  }
  attr {
    key: "_output_shapes"
    value {
      list {
        shape {
        }
      }
    }
  }
  attr {
    key: "dtype"
    value {
      type: DT_FLOAT
    }
  }
  attr {
    key: "value"
    value {
      tensor {
        dtype: DT_FLOAT
        tensor_shape {
        }
        float_val: 0.09592942148447037
      }
    }
  }
}
node {
  name: "pi_net_inter/gc_block/pi_layer/ff_layer_20/dense_46/kernel/Initializer/random_uniform/RandomUniform"
  op: "RandomUniform"
  input: "pi_net_inter/gc_block/pi_layer/ff_layer_20/dense_46/kernel/Initializer/random_uniform/shape"
  attr {
    key: "T"
    value {
      type: DT_INT32
    }
  }
  attr {
    key: "_class"
    value {
      list {
        s: "loc:@pi_net_inter/gc_block/pi_layer/ff_layer_20/dense_46/kernel"
      }
    }
  }
  attr {
    key: "_output_shapes"
    value {
      list {
        shape {
          dim {
            size: 12
          }
          dim {
            size: 640
          }
        }
      }
    }
  }
  attr {
    key: "dtype"
    value {
      type: DT_FLOAT
    }
  }
  attr {
    key: "seed"
    value {
      i: 0
    }
  }
  attr {
    key: "seed2"
    value {
      i: 0
    }
  }
}
node {
  name: "pi_net_inter/gc_block/pi_layer/ff_layer_20/dense_46/kernel/Initializer/random_uniform/sub"
  op: "Sub"
  input: "pi_net_inter/gc_block/pi_layer/ff_layer_20/dense_46/kernel/Initializer/random_uniform/max"
  input: "pi_net_inter/gc_block/pi_layer/ff_layer_20/dense_46/kernel/Initializer/random_uniform/min"
  attr {
    key: "T"
    value {
      type: DT_FLOAT
    }
  }
  attr {
    key: "_class"
    value {
      list {
        s: "loc:@pi_net_inter/gc_block/pi_layer/ff_layer_20/dense_46/kernel"
      }
    }
  }
  attr {
    key: "_output_shapes"
    value {
      list {
        shape {
        }
      }
    }
  }
}
node {
  name: "pi_net_inter/gc_block/pi_layer/ff_layer_20/dense_46/kernel/Initializer/random_uniform/mul"
  op: "Mul"
  input: "pi_net_inter/gc_block/pi_layer/ff_layer_20/dense_46/kernel/Initializer/random_uniform/RandomUniform"
  input: "pi_net_inter/gc_block/pi_layer/ff_layer_20/dense_46/kernel/Initializer/random_uniform/sub"
  attr {
    key: "T"
    value {
      type: DT_FLOAT
    }
  }
  attr {
    key: "_class"
    value {
      list {
        s: "loc:@pi_net_inter/gc_block/pi_layer/ff_layer_20/dense_46/kernel"
      }
    }
  }
  attr {
    key: "_output_shapes"
    value {
      list {
        shape {
          dim {
            size: 12
          }
          dim {
            size: 640
          }
        }
      }
    }
  }
}
node {
  name: "pi_net_inter/gc_block/pi_layer/ff_layer_20/dense_46/kernel/Initializer/random_uniform"
  op: "Add"
  input: "pi_net_inter/gc_block/pi_layer/ff_layer_20/dense_46/kernel/Initializer/random_uniform/mul"
  input: "pi_net_inter/gc_block/pi_layer/ff_layer_20/dense_46/kernel/Initializer/random_uniform/min"
  attr {
    key: "T"
    value {
      type: DT_FLOAT
    }
  }
  attr {
    key: "_class"
    value {
      list {
        s: "loc:@pi_net_inter/gc_block/pi_layer/ff_layer_20/dense_46/kernel"
      }
    }
  }
  attr {
    key: "_output_shapes"
    value {
      list {
        shape {
          dim {
            size: 12
          }
          dim {
            size: 640
          }
        }
      }
    }
  }
}
node {
  name: "pi_net_inter/gc_block/pi_layer/ff_layer_20/dense_46/kernel"
  op: "VarHandleOp"
  attr {
    key: "_class"
    value {
      list {
        s: "loc:@pi_net_inter/gc_block/pi_layer/ff_layer_20/dense_46/kernel"
      }
    }
  }
  attr {
    key: "_output_shapes"
    value {
      list {
        shape {
        }
      }
    }
  }
  attr {
    key: "allowed_devices"
    value {
      list {
      }
    }
  }
  attr {
    key: "container"
    value {
      s: ""
    }
  }
  attr {
    key: "dtype"
    value {
      type: DT_FLOAT
    }
  }
  attr {
    key: "shape"
    value {
      shape {
        dim {
          size: 12
        }
        dim {
          size: 640
        }
      }
    }
  }
  attr {
    key: "shared_name"
    value {
      s: "pi_net_inter/gc_block/pi_layer/ff_layer_20/dense_46/kernel"
    }
  }
}
node {
  name: "pi_net_inter/gc_block/pi_layer/ff_layer_20/dense_46/kernel/IsInitialized/VarIsInitializedOp"
  op: "VarIsInitializedOp"
  input: "pi_net_inter/gc_block/pi_layer/ff_layer_20/dense_46/kernel"
  attr {
    key: "_output_shapes"
    value {
      list {
        shape {
        }
      }
    }
  }
}
node {
  name: "pi_net_inter/gc_block/pi_layer/ff_layer_20/dense_46/kernel/Assign"
  op: "AssignVariableOp"
  input: "pi_net_inter/gc_block/pi_layer/ff_layer_20/dense_46/kernel"
  input: "pi_net_inter/gc_block/pi_layer/ff_layer_20/dense_46/kernel/Initializer/random_uniform"
  attr {
    key: "dtype"
    value {
      type: DT_FLOAT
    }
  }
}
node {
  name: "pi_net_inter/gc_block/pi_layer/ff_layer_20/dense_46/kernel/Read/ReadVariableOp"
  op: "ReadVariableOp"
  input: "pi_net_inter/gc_block/pi_layer/ff_layer_20/dense_46/kernel"
  attr {
    key: "_output_shapes"
    value {
      list {
        shape {
          dim {
            size: 12
          }
          dim {
            size: 640
          }
        }
      }
    }
  }
  attr {
    key: "dtype"
    value {
      type: DT_FLOAT
    }
  }
}
node {
  name: "pi_net_inter/gc_block/pi_layer/ff_layer_20/dense_46/bias/Initializer/zeros"
  op: "Const"
  attr {
    key: "_class"
    value {
      list {
        s: "loc:@pi_net_inter/gc_block/pi_layer/ff_layer_20/dense_46/bias"
      }
    }
  }
  attr {
    key: "_output_shapes"
    value {
      list {
        shape {
          dim {
            size: 640
          }
        }
      }
    }
  }
  attr {
    key: "dtype"
    value {
      type: DT_FLOAT
    }
  }
  attr {
    key: "value"
    value {
      tensor {
        dtype: DT_FLOAT
        tensor_shape {
          dim {
            size: 640
          }
        }
        float_val: 0.0
      }
    }
  }
}
node {
  name: "pi_net_inter/gc_block/pi_layer/ff_layer_20/dense_46/bias"
  op: "VarHandleOp"
  attr {
    key: "_class"
    value {
      list {
        s: "loc:@pi_net_inter/gc_block/pi_layer/ff_layer_20/dense_46/bias"
      }
    }
  }
  attr {
    key: "_output_shapes"
    value {
      list {
        shape {
        }
      }
    }
  }
  attr {
    key: "allowed_devices"
    value {
      list {
      }
    }
  }
  attr {
    key: "container"
    value {
      s: ""
    }
  }
  attr {
    key: "dtype"
    value {
      type: DT_FLOAT
    }
  }
  attr {
    key: "shape"
    value {
      shape {
        dim {
          size: 640
        }
      }
    }
  }
  attr {
    key: "shared_name"
    value {
      s: "pi_net_inter/gc_block/pi_layer/ff_layer_20/dense_46/bias"
    }
  }
}
node {
  name: "pi_net_inter/gc_block/pi_layer/ff_layer_20/dense_46/bias/IsInitialized/VarIsInitializedOp"
  op: "VarIsInitializedOp"
  input: "pi_net_inter/gc_block/pi_layer/ff_layer_20/dense_46/bias"
  attr {
    key: "_output_shapes"
    value {
      list {
        shape {
        }
      }
    }
  }
}
node {
  name: "pi_net_inter/gc_block/pi_layer/ff_layer_20/dense_46/bias/Assign"
  op: "AssignVariableOp"
  input: "pi_net_inter/gc_block/pi_layer/ff_layer_20/dense_46/bias"
  input: "pi_net_inter/gc_block/pi_layer/ff_layer_20/dense_46/bias/Initializer/zeros"
  attr {
    key: "dtype"
    value {
      type: DT_FLOAT
    }
  }
}
node {
  name: "pi_net_inter/gc_block/pi_layer/ff_layer_20/dense_46/bias/Read/ReadVariableOp"
  op: "ReadVariableOp"
  input: "pi_net_inter/gc_block/pi_layer/ff_layer_20/dense_46/bias"
  attr {
    key: "_output_shapes"
    value {
      list {
        shape {
          dim {
            size: 640
          }
        }
      }
    }
  }
  attr {
    key: "dtype"
    value {
      type: DT_FLOAT
    }
  }
}
node {
  name: "pi_net_inter/gc_block/pi_layer/ff_layer_20/dense_46/MatMul/ReadVariableOp"
  op: "ReadVariableOp"
  input: "pi_net_inter/gc_block/pi_layer/ff_layer_20/dense_46/kernel"
  attr {
    key: "_output_shapes"
    value {
      list {
        shape {
          dim {
            size: 12
          }
          dim {
            size: 640
          }
        }
      }
    }
  }
  attr {
    key: "dtype"
    value {
      type: DT_FLOAT
    }
  }
}
node {
  name: "pi_net_inter/gc_block/pi_layer/ff_layer_20/dense_46/MatMul"
  op: "MatMul"
  input: "pi_net_inter/gc_block/pi_layer/concat"
  input: "pi_net_inter/gc_block/pi_layer/ff_layer_20/dense_46/MatMul/ReadVariableOp"
  attr {
    key: "T"
    value {
      type: DT_FLOAT
    }
  }
  attr {
    key: "_output_shapes"
    value {
      list {
        shape {
          dim {
            size: -1
          }
          dim {
            size: 640
          }
        }
      }
    }
  }
  attr {
    key: "transpose_a"
    value {
      b: false
    }
  }
  attr {
    key: "transpose_b"
    value {
      b: false
    }
  }
}
node {
  name: "pi_net_inter/gc_block/pi_layer/ff_layer_20/dense_46/BiasAdd/ReadVariableOp"
  op: "ReadVariableOp"
  input: "pi_net_inter/gc_block/pi_layer/ff_layer_20/dense_46/bias"
  attr {
    key: "_output_shapes"
    value {
      list {
        shape {
          dim {
            size: 640
          }
        }
      }
    }
  }
  attr {
    key: "dtype"
    value {
      type: DT_FLOAT
    }
  }
}
node {
  name: "pi_net_inter/gc_block/pi_layer/ff_layer_20/dense_46/BiasAdd"
  op: "BiasAdd"
  input: "pi_net_inter/gc_block/pi_layer/ff_layer_20/dense_46/MatMul"
  input: "pi_net_inter/gc_block/pi_layer/ff_layer_20/dense_46/BiasAdd/ReadVariableOp"
  attr {
    key: "T"
    value {
      type: DT_FLOAT
    }
  }
  attr {
    key: "_output_shapes"
    value {
      list {
        shape {
          dim {
            size: -1
          }
          dim {
            size: 640
          }
        }
      }
    }
  }
  attr {
    key: "data_format"
    value {
      s: "NHWC"
    }
  }
}
node {
  name: "pi_net_inter/gc_block/pi_layer/ff_layer_20/dense_46/Tanh"
  op: "Tanh"
  input: "pi_net_inter/gc_block/pi_layer/ff_layer_20/dense_46/BiasAdd"
  attr {
    key: "T"
    value {
      type: DT_FLOAT
    }
  }
  attr {
    key: "_output_shapes"
    value {
      list {
        shape {
          dim {
            size: -1
          }
          dim {
            size: 640
          }
        }
      }
    }
  }
}
node {
  name: "pi_net_inter/gc_block/pi_layer/Shape"
  op: "Shape"
  input: "pi_net_inter/gc_block/pi_layer/ff_layer_20/dense_46/Tanh"
  attr {
    key: "T"
    value {
      type: DT_FLOAT
    }
  }
  attr {
    key: "_output_shapes"
    value {
      list {
        shape {
          dim {
            size: 2
          }
        }
      }
    }
  }
  attr {
    key: "out_type"
    value {
      type: DT_INT32
    }
  }
}
node {
  name: "pi_net_inter/gc_block/pi_layer/strided_slice_2/stack"
  op: "Const"
  attr {
    key: "_output_shapes"
    value {
      list {
        shape {
          dim {
            size: 1
          }
        }
      }
    }
  }
  attr {
    key: "dtype"
    value {
      type: DT_INT32
    }
  }
  attr {
    key: "value"
    value {
      tensor {
        dtype: DT_INT32
        tensor_shape {
          dim {
            size: 1
          }
        }
        int_val: 0
      }
    }
  }
}
node {
  name: "pi_net_inter/gc_block/pi_layer/strided_slice_2/stack_1"
  op: "Const"
  attr {
    key: "_output_shapes"
    value {
      list {
        shape {
          dim {
            size: 1
          }
        }
      }
    }
  }
  attr {
    key: "dtype"
    value {
      type: DT_INT32
    }
  }
  attr {
    key: "value"
    value {
      tensor {
        dtype: DT_INT32
        tensor_shape {
          dim {
            size: 1
          }
        }
        int_val: -1
      }
    }
  }
}
node {
  name: "pi_net_inter/gc_block/pi_layer/strided_slice_2/stack_2"
  op: "Const"
  attr {
    key: "_output_shapes"
    value {
      list {
        shape {
          dim {
            size: 1
          }
        }
      }
    }
  }
  attr {
    key: "dtype"
    value {
      type: DT_INT32
    }
  }
  attr {
    key: "value"
    value {
      tensor {
        dtype: DT_INT32
        tensor_shape {
          dim {
            size: 1
          }
        }
        int_val: 1
      }
    }
  }
}
node {
  name: "pi_net_inter/gc_block/pi_layer/strided_slice_2"
  op: "StridedSlice"
  input: "pi_net_inter/gc_block/pi_layer/Shape"
  input: "pi_net_inter/gc_block/pi_layer/strided_slice_2/stack"
  input: "pi_net_inter/gc_block/pi_layer/strided_slice_2/stack_1"
  input: "pi_net_inter/gc_block/pi_layer/strided_slice_2/stack_2"
  attr {
    key: "Index"
    value {
      type: DT_INT32
    }
  }
  attr {
    key: "T"
    value {
      type: DT_INT32
    }
  }
  attr {
    key: "_output_shapes"
    value {
      list {
        shape {
          dim {
            size: 1
          }
        }
      }
    }
  }
  attr {
    key: "begin_mask"
    value {
      i: 1
    }
  }
  attr {
    key: "ellipsis_mask"
    value {
      i: 0
    }
  }
  attr {
    key: "end_mask"
    value {
      i: 0
    }
  }
  attr {
    key: "new_axis_mask"
    value {
      i: 0
    }
  }
  attr {
    key: "shrink_axis_mask"
    value {
      i: 0
    }
  }
}
node {
  name: "pi_net_inter/gc_block/pi_layer/concat_1/values_1"
  op: "Const"
  attr {
    key: "_output_shapes"
    value {
      list {
        shape {
          dim {
            size: 2
          }
        }
      }
    }
  }
  attr {
    key: "dtype"
    value {
      type: DT_INT32
    }
  }
  attr {
    key: "value"
    value {
      tensor {
        dtype: DT_INT32
        tensor_shape {
          dim {
            size: 2
          }
        }
        tensor_content: " \000\000\000\024\000\000\000"
      }
    }
  }
}
node {
  name: "pi_net_inter/gc_block/pi_layer/concat_1/axis"
  op: "Const"
  attr {
    key: "_output_shapes"
    value {
      list {
        shape {
        }
      }
    }
  }
  attr {
    key: "dtype"
    value {
      type: DT_INT32
    }
  }
  attr {
    key: "value"
    value {
      tensor {
        dtype: DT_INT32
        tensor_shape {
        }
        int_val: 0
      }
    }
  }
}
node {
  name: "pi_net_inter/gc_block/pi_layer/concat_1"
  op: "ConcatV2"
  input: "pi_net_inter/gc_block/pi_layer/strided_slice_2"
  input: "pi_net_inter/gc_block/pi_layer/concat_1/values_1"
  input: "pi_net_inter/gc_block/pi_layer/concat_1/axis"
  attr {
    key: "N"
    value {
      i: 2
    }
  }
  attr {
    key: "T"
    value {
      type: DT_INT32
    }
  }
  attr {
    key: "Tidx"
    value {
      type: DT_INT32
    }
  }
  attr {
    key: "_output_shapes"
    value {
      list {
        shape {
          dim {
            size: 3
          }
        }
      }
    }
  }
}
node {
  name: "pi_net_inter/gc_block/pi_layer/Reshape"
  op: "Reshape"
  input: "pi_net_inter/gc_block/pi_layer/ff_layer_20/dense_46/Tanh"
  input: "pi_net_inter/gc_block/pi_layer/concat_1"
  attr {
    key: "T"
    value {
      type: DT_FLOAT
    }
  }
  attr {
    key: "Tshape"
    value {
      type: DT_INT32
    }
  }
  attr {
    key: "_output_shapes"
    value {
      list {
        shape {
          dim {
            size: -1
          }
          dim {
            size: 32
          }
          dim {
            size: 20
          }
        }
      }
    }
  }
}
node {
  name: "pi_net_inter/gc_block/pi_layer/mul"
  op: "Mul"
  input: "pi_net_inter/gc_block/pi_layer/Reshape"
  input: "pi_net_inter/strided_slice"
  attr {
    key: "T"
    value {
      type: DT_FLOAT
    }
  }
  attr {
    key: "_output_shapes"
    value {
      list {
        shape {
          dim {
            size: -1
          }
          dim {
            size: 32
          }
          dim {
            size: 20
          }
        }
      }
    }
  }
}
node {
  name: "pi_net_inter/gc_block/pi_layer/Sum/reduction_indices"
  op: "Const"
  attr {
    key: "_output_shapes"
    value {
      list {
        shape {
        }
      }
    }
  }
  attr {
    key: "dtype"
    value {
      type: DT_INT32
    }
  }
  attr {
    key: "value"
    value {
      tensor {
        dtype: DT_INT32
        tensor_shape {
        }
        int_val: -1
      }
    }
  }
}
node {
  name: "pi_net_inter/gc_block/pi_layer/Sum"
  op: "Sum"
  input: "pi_net_inter/gc_block/pi_layer/mul"
  input: "pi_net_inter/gc_block/pi_layer/Sum/reduction_indices"
  attr {
    key: "T"
    value {
      type: DT_FLOAT
    }
  }
  attr {
    key: "Tidx"
    value {
      type: DT_INT32
    }
  }
  attr {
    key: "_output_shapes"
    value {
      list {
        shape {
          dim {
            size: -1
          }
          dim {
            size: 32
          }
        }
      }
    }
  }
  attr {
    key: "keep_dims"
    value {
      b: false
    }
  }
}
node {
  name: "pi_net_inter/gc_block/ff_layer_1/dense/kernel/Initializer/random_uniform/shape"
  op: "Const"
  attr {
    key: "_class"
    value {
      list {
        s: "loc:@pi_net_inter/gc_block/ff_layer_1/dense/kernel"
      }
    }
  }
  attr {
    key: "_output_shapes"
    value {
      list {
        shape {
          dim {
            size: 2
          }
        }
      }
    }
  }
  attr {
    key: "dtype"
    value {
      type: DT_INT32
    }
  }
  attr {
    key: "value"
    value {
      tensor {
        dtype: DT_INT32
        tensor_shape {
          dim {
            size: 2
          }
        }
        tensor_content: " \000\000\000 \000\000\000"
      }
    }
  }
}
node {
  name: "pi_net_inter/gc_block/ff_layer_1/dense/kernel/Initializer/random_uniform/min"
  op: "Const"
  attr {
    key: "_class"
    value {
      list {
        s: "loc:@pi_net_inter/gc_block/ff_layer_1/dense/kernel"
      }
    }
  }
  attr {
    key: "_output_shapes"
    value {
      list {
        shape {
        }
      }
    }
  }
  attr {
    key: "dtype"
    value {
      type: DT_FLOAT
    }
  }
  attr {
    key: "value"
    value {
      tensor {
        dtype: DT_FLOAT
        tensor_shape {
        }
        float_val: -0.3061862289905548
      }
    }
  }
}
node {
  name: "pi_net_inter/gc_block/ff_layer_1/dense/kernel/Initializer/random_uniform/max"
  op: "Const"
  attr {
    key: "_class"
    value {
      list {
        s: "loc:@pi_net_inter/gc_block/ff_layer_1/dense/kernel"
      }
    }
  }
  attr {
    key: "_output_shapes"
    value {
      list {
        shape {
        }
      }
    }
  }
  attr {
    key: "dtype"
    value {
      type: DT_FLOAT
    }
  }
  attr {
    key: "value"
    value {
      tensor {
        dtype: DT_FLOAT
        tensor_shape {
        }
        float_val: 0.3061862289905548
      }
    }
  }
}
node {
  name: "pi_net_inter/gc_block/ff_layer_1/dense/kernel/Initializer/random_uniform/RandomUniform"
  op: "RandomUniform"
  input: "pi_net_inter/gc_block/ff_layer_1/dense/kernel/Initializer/random_uniform/shape"
  attr {
    key: "T"
    value {
      type: DT_INT32
    }
  }
  attr {
    key: "_class"
    value {
      list {
        s: "loc:@pi_net_inter/gc_block/ff_layer_1/dense/kernel"
      }
    }
  }
  attr {
    key: "_output_shapes"
    value {
      list {
        shape {
          dim {
            size: 32
          }
          dim {
            size: 32
          }
        }
      }
    }
  }
  attr {
    key: "dtype"
    value {
      type: DT_FLOAT
    }
  }
  attr {
    key: "seed"
    value {
      i: 0
    }
  }
  attr {
    key: "seed2"
    value {
      i: 0
    }
  }
}
node {
  name: "pi_net_inter/gc_block/ff_layer_1/dense/kernel/Initializer/random_uniform/sub"
  op: "Sub"
  input: "pi_net_inter/gc_block/ff_layer_1/dense/kernel/Initializer/random_uniform/max"
  input: "pi_net_inter/gc_block/ff_layer_1/dense/kernel/Initializer/random_uniform/min"
  attr {
    key: "T"
    value {
      type: DT_FLOAT
    }
  }
  attr {
    key: "_class"
    value {
      list {
        s: "loc:@pi_net_inter/gc_block/ff_layer_1/dense/kernel"
      }
    }
  }
  attr {
    key: "_output_shapes"
    value {
      list {
        shape {
        }
      }
    }
  }
}
node {
  name: "pi_net_inter/gc_block/ff_layer_1/dense/kernel/Initializer/random_uniform/mul"
  op: "Mul"
  input: "pi_net_inter/gc_block/ff_layer_1/dense/kernel/Initializer/random_uniform/RandomUniform"
  input: "pi_net_inter/gc_block/ff_layer_1/dense/kernel/Initializer/random_uniform/sub"
  attr {
    key: "T"
    value {
      type: DT_FLOAT
    }
  }
  attr {
    key: "_class"
    value {
      list {
        s: "loc:@pi_net_inter/gc_block/ff_layer_1/dense/kernel"
      }
    }
  }
  attr {
    key: "_output_shapes"
    value {
      list {
        shape {
          dim {
            size: 32
          }
          dim {
            size: 32
          }
        }
      }
    }
  }
}
node {
  name: "pi_net_inter/gc_block/ff_layer_1/dense/kernel/Initializer/random_uniform"
  op: "Add"
  input: "pi_net_inter/gc_block/ff_layer_1/dense/kernel/Initializer/random_uniform/mul"
  input: "pi_net_inter/gc_block/ff_layer_1/dense/kernel/Initializer/random_uniform/min"
  attr {
    key: "T"
    value {
      type: DT_FLOAT
    }
  }
  attr {
    key: "_class"
    value {
      list {
        s: "loc:@pi_net_inter/gc_block/ff_layer_1/dense/kernel"
      }
    }
  }
  attr {
    key: "_output_shapes"
    value {
      list {
        shape {
          dim {
            size: 32
          }
          dim {
            size: 32
          }
        }
      }
    }
  }
}
node {
  name: "pi_net_inter/gc_block/ff_layer_1/dense/kernel"
  op: "VarHandleOp"
  attr {
    key: "_class"
    value {
      list {
        s: "loc:@pi_net_inter/gc_block/ff_layer_1/dense/kernel"
      }
    }
  }
  attr {
    key: "_output_shapes"
    value {
      list {
        shape {
        }
      }
    }
  }
  attr {
    key: "allowed_devices"
    value {
      list {
      }
    }
  }
  attr {
    key: "container"
    value {
      s: ""
    }
  }
  attr {
    key: "dtype"
    value {
      type: DT_FLOAT
    }
  }
  attr {
    key: "shape"
    value {
      shape {
        dim {
          size: 32
        }
        dim {
          size: 32
        }
      }
    }
  }
  attr {
    key: "shared_name"
    value {
      s: "pi_net_inter/gc_block/ff_layer_1/dense/kernel"
    }
  }
}
node {
  name: "pi_net_inter/gc_block/ff_layer_1/dense/kernel/IsInitialized/VarIsInitializedOp"
  op: "VarIsInitializedOp"
  input: "pi_net_inter/gc_block/ff_layer_1/dense/kernel"
  attr {
    key: "_output_shapes"
    value {
      list {
        shape {
        }
      }
    }
  }
}
node {
  name: "pi_net_inter/gc_block/ff_layer_1/dense/kernel/Assign"
  op: "AssignVariableOp"
  input: "pi_net_inter/gc_block/ff_layer_1/dense/kernel"
  input: "pi_net_inter/gc_block/ff_layer_1/dense/kernel/Initializer/random_uniform"
  attr {
    key: "dtype"
    value {
      type: DT_FLOAT
    }
  }
}
node {
  name: "pi_net_inter/gc_block/ff_layer_1/dense/kernel/Read/ReadVariableOp"
  op: "ReadVariableOp"
  input: "pi_net_inter/gc_block/ff_layer_1/dense/kernel"
  attr {
    key: "_output_shapes"
    value {
      list {
        shape {
          dim {
            size: 32
          }
          dim {
            size: 32
          }
        }
      }
    }
  }
  attr {
    key: "dtype"
    value {
      type: DT_FLOAT
    }
  }
}
node {
  name: "pi_net_inter/gc_block/ff_layer_1/dense/MatMul/ReadVariableOp"
  op: "ReadVariableOp"
  input: "pi_net_inter/gc_block/ff_layer_1/dense/kernel"
  attr {
    key: "_output_shapes"
    value {
      list {
        shape {
          dim {
            size: 32
          }
          dim {
            size: 32
          }
        }
      }
    }
  }
  attr {
    key: "dtype"
    value {
      type: DT_FLOAT
    }
  }
}
node {
  name: "pi_net_inter/gc_block/ff_layer_1/dense/MatMul"
  op: "MatMul"
  input: "pi_net_inter/gc_block/pi_layer/Sum"
  input: "pi_net_inter/gc_block/ff_layer_1/dense/MatMul/ReadVariableOp"
  attr {
    key: "T"
    value {
      type: DT_FLOAT
    }
  }
  attr {
    key: "_output_shapes"
    value {
      list {
        shape {
          dim {
            size: -1
          }
          dim {
            size: 32
          }
        }
      }
    }
  }
  attr {
    key: "transpose_a"
    value {
      b: false
    }
  }
  attr {
    key: "transpose_b"
    value {
      b: false
    }
  }
}
node {
  name: "pi_net_inter/gc_block/ff_layer_1/dense/Tanh"
  op: "Tanh"
  input: "pi_net_inter/gc_block/ff_layer_1/dense/MatMul"
  attr {
    key: "T"
    value {
      type: DT_FLOAT
    }
  }
  attr {
    key: "_output_shapes"
    value {
      list {
        shape {
          dim {
            size: -1
          }
          dim {
            size: 32
          }
        }
      }
    }
  }
}
node {
  name: "pi_net_inter/gc_block/ff_layer_1/dense_1/kernel/Initializer/random_uniform/shape"
  op: "Const"
  attr {
    key: "_class"
    value {
      list {
        s: "loc:@pi_net_inter/gc_block/ff_layer_1/dense_1/kernel"
      }
    }
  }
  attr {
    key: "_output_shapes"
    value {
…
          type: DT_INT32
        }
      }
      attr {
        key: "value"
        value {
          tensor {
            dtype: DT_INT32
            tensor_shape {
            }
            int_val: 0
          }
        }
      }
      experimental_debug_info {
        original_node_names: "PRE/preprocess_layer/cell_list_nl/GatherV2_6/axis"
      }
    }
    node_def {
      name: "PRE/preprocess_layer/cell_list_nl/GatherV2_6"
      op: "GatherV2"
      input: "PRE/preprocess_layer/cell_list_nl/sub_1:z:0"
      input: "PRE/preprocess_layer/cell_list_nl/GatherV2_4:output:0"
      input: "PRE/preprocess_layer/cell_list_nl/GatherV2_6/axis:output:0"
      attr {
        key: "Taxis"
        value {
          type: DT_INT32
        }
      }
      attr {
        key: "Tindices"
        value {
          type: DT_INT32
        }
      }
      attr {
        key: "Tparams"
        value {
          type: DT_FLOAT
        }
      }
      attr {
        key: "_output_shapes"
        value {
          list {
            shape {
              dim {
                size: -1
              }
              dim {
                size: 3
              }
            }
          }
        }
      }
      attr {
        key: "batch_dims"
        value {
          i: 0
        }
      }
      experimental_debug_info {
        original_node_names: "PRE/preprocess_layer/cell_list_nl/GatherV2_6"
      }
    }
    node_def {
      name: "PRE/preprocess_layer/cell_list_nl/sub_6"
      op: "Sub"
      input: "PRE/preprocess_layer/cell_list_nl/GatherV2_5:output:0"
      input: "PRE/preprocess_layer/cell_list_nl/GatherV2_6:output:0"
      attr {
        key: "T"
        value {
          type: DT_FLOAT
        }
      }
      attr {
        key: "_output_shapes"
        value {
          list {
            shape {
              dim {
                size: -1
              }
              dim {
                size: 3
              }
            }
          }
        }
      }
      experimental_debug_info {
        original_node_names: "PRE/preprocess_layer/cell_list_nl/sub_6"
      }
    }
    node_def {
      name: "PRE/preprocess_layer/cell_list_nl/norm/mul"
      op: "Mul"
      input: "PRE/preprocess_layer/cell_list_nl/sub_6:z:0"
      input: "PRE/preprocess_layer/cell_list_nl/sub_6:z:0"
      attr {
        key: "T"
        value {
          type: DT_FLOAT
        }
      }
      attr {
        key: "_output_shapes"
        value {
          list {
            shape {
              dim {
                size: -1
              }
              dim {
                size: 3
              }
            }
          }
        }
      }
      experimental_debug_info {
        original_node_names: "PRE/preprocess_layer/cell_list_nl/norm/mul"
      }
    }
    node_def {
      name: "PRE/preprocess_layer/cell_list_nl/norm/Sum/reduction_indices"
      op: "Const"
      attr {
        key: "_output_shapes"
        value {
          list {
            shape {
              dim {
                size: 1
              }
            }
          }
        }
      }
      attr {
        key: "dtype"
        value {
          type: DT_INT32
        }
      }
      attr {
        key: "value"
        value {
          tensor {
            dtype: DT_INT32
            tensor_shape {
              dim {
                size: 1
              }
            }
            int_val: -1
          }
        }
      }
      experimental_debug_info {
        original_node_names: "PRE/preprocess_layer/cell_list_nl/norm/Sum/reduction_indices"
      }
    }
    node_def {
      name: "PRE/preprocess_layer/cell_list_nl/norm/Sum"
      op: "Sum"
      input: "PRE/preprocess_layer/cell_list_nl/norm/mul:z:0"
      input: "PRE/preprocess_layer/cell_list_nl/norm/Sum/reduction_indices:output:0"
      attr {
        key: "T"
        value {
          type: DT_FLOAT
        }
      }
      attr {
        key: "Tidx"
        value {
          type: DT_INT32
        }
      }
      attr {
        key: "_output_shapes"
        value {
          list {
            shape {
              dim {
                size: -1
              }
              dim {
                size: 1
              }
            }
          }
        }
      }
      attr {
        key: "keep_dims"
        value {
          b: true
        }
      }
      experimental_debug_info {
        original_node_names: "PRE/preprocess_layer/cell_list_nl/norm/Sum"
      }
    }
    node_def {
      name: "PRE/preprocess_layer/cell_list_nl/norm/Sqrt"
      op: "Sqrt"
      input: "PRE/preprocess_layer/cell_list_nl/norm/Sum:output:0"
      attr {
        key: "T"
        value {
          type: DT_FLOAT
        }
      }
      attr {
        key: "_output_shapes"
        value {
          list {
            shape {
              dim {
                size: -1
              }
              dim {
                size: 1
              }
            }
          }
        }
      }
      experimental_debug_info {
        original_node_names: "PRE/preprocess_layer/cell_list_nl/norm/Sqrt"
      }
    }
    node_def {
      name: "PRE/preprocess_layer/cell_list_nl/norm/Squeeze"
      op: "Squeeze"
      input: "PRE/preprocess_layer/cell_list_nl/norm/Sqrt:y:0"
      attr {
        key: "T"
        value {
          type: DT_FLOAT
        }
      }
      attr {
        key: "_output_shapes"
        value {
          list {
            shape {
              dim {
                size: -1
              }
            }
          }
        }
      }
      attr {
        key: "squeeze_dims"
        value {
          list {
            i: -1
          }
        }
      }
      experimental_debug_info {
        original_node_names: "PRE/preprocess_layer/cell_list_nl/norm/Squeeze"
      }
    }
    node_def {
      name: "PRE/preprocess_layer/cell_list_nl/Less_1/y"
      op: "Const"
      attr {
        key: "_output_shapes"
        value {
          list {
            shape {
            }
          }
        }
      }
      attr {
        key: "dtype"
        value {
          type: DT_FLOAT
        }
      }
      attr {
        key: "value"
        value {
          tensor {
            dtype: DT_FLOAT
            tensor_shape {
            }
            float_val: 4.5
          }
        }
      }
      experimental_debug_info {
        original_node_names: "PRE/preprocess_layer/cell_list_nl/Less_1/y"
      }
    }
    node_def {
      name: "PRE/preprocess_layer/cell_list_nl/Less_1"
      op: "Less"
      input: "PRE/preprocess_layer/cell_list_nl/norm/Squeeze:output:0"
      input: "PRE/preprocess_layer/cell_list_nl/Less_1/y:output:0"
      attr {
        key: "T"
        value {
          type: DT_FLOAT
        }
      }
      attr {
        key: "_output_shapes"
        value {
          list {
            shape {
              dim {
                size: -1
              }
            }
          }
        }
      }
      experimental_debug_info {
        original_node_names: "PRE/preprocess_layer/cell_list_nl/Less_1"
      }
    }
    node_def {
      name: "PRE/preprocess_layer/cell_list_nl/Greater/y"
      op: "Const"
      attr {
        key: "_output_shapes"
        value {
          list {
            shape {
            }
          }
        }
      }
      attr {
        key: "dtype"
        value {
          type: DT_FLOAT
        }
      }
      attr {
        key: "value"
        value {
          tensor {
            dtype: DT_FLOAT
            tensor_shape {
            }
            float_val: 0.0
          }
        }
      }
      experimental_debug_info {
        original_node_names: "PRE/preprocess_layer/cell_list_nl/Greater/y"
      }
    }
    node_def {
      name: "PRE/preprocess_layer/cell_list_nl/Greater"
      op: "Greater"
      input: "PRE/preprocess_layer/cell_list_nl/norm/Squeeze:output:0"
      input: "PRE/preprocess_layer/cell_list_nl/Greater/y:output:0"
      attr {
        key: "T"
        value {
          type: DT_FLOAT
        }
      }
      attr {
        key: "_output_shapes"
        value {
          list {
            shape {
              dim {
                size: -1
              }
            }
          }
        }
      }
      experimental_debug_info {
        original_node_names: "PRE/preprocess_layer/cell_list_nl/Greater"
      }
    }
    node_def {
      name: "PRE/preprocess_layer/cell_list_nl/and_1"
      op: "LogicalAnd"
      input: "PRE/preprocess_layer/cell_list_nl/Less_1:z:0"
      input: "PRE/preprocess_layer/cell_list_nl/Greater:z:0"
      attr {
        key: "_output_shapes"
        value {
          list {
            shape {
              dim {
                size: -1
              }
            }
          }
        }
      }
      experimental_debug_info {
        original_node_names: "PRE/preprocess_layer/cell_list_nl/and_1"
      }
    }
    node_def {
      name: "PRE/preprocess_layer/cell_list_nl/Where_4"
      op: "Where"
      input: "PRE/preprocess_layer/cell_list_nl/and_1:z:0"
      attr {
        key: "T"
        value {
          type: DT_BOOL
        }
      }
      attr {
        key: "_output_shapes"
        value {
          list {
            shape {
              dim {
                size: -1
              }
              dim {
                size: 1
              }
            }
          }
        }
      }
      experimental_debug_info {
        original_node_names: "PRE/preprocess_layer/cell_list_nl/Where_4"
      }
    }
    node_def {
      name: "PRE/preprocess_layer/cell_list_nl/GatherNd_5"
      op: "GatherNd"
      input: "PRE/preprocess_layer/cell_list_nl/norm/Squeeze:output:0"
      input: "PRE/preprocess_layer/cell_list_nl/Where_4:index:0"
      attr {
        key: "Tindices"
        value {
          type: DT_INT64
        }
      }
      attr {
        key: "Tparams"
        value {
          type: DT_FLOAT
        }
      }
      attr {
        key: "_output_shapes"
        value {
          list {
            shape {
              dim {
                size: -1
              }
            }
          }
        }
      }
      experimental_debug_info {
        original_node_names: "PRE/preprocess_layer/cell_list_nl/GatherNd_5"
      }
    }
    node_def {
      name: "PRE/preprocess_layer/cell_list_nl/GatherNd_6"
      op: "GatherNd"
      input: "PRE/preprocess_layer/cell_list_nl/sub_6:z:0"
      input: "PRE/preprocess_layer/cell_list_nl/Where_4:index:0"
      attr {
        key: "Tindices"
        value {
          type: DT_INT64
        }
      }
      attr {
        key: "Tparams"
        value {
          type: DT_FLOAT
        }
      }
      attr {
        key: "_output_shapes"
        value {
          list {
            shape {
              dim {
                size: -1
              }
              dim {
                size: 3
              }
            }
          }
        }
      }
      experimental_debug_info {
        original_node_names: "PRE/preprocess_layer/cell_list_nl/GatherNd_6"
      }
    }
    node_def {
      name: "PRE/preprocess_layer/cell_list_nl/GatherV2_7/axis"
      op: "Const"
      attr {
        key: "_output_shapes"
        value {
          list {
            shape {
            }
          }
        }
      }
      attr {
        key: "dtype"
        value {
          type: DT_INT32
        }
      }
      attr {
        key: "value"
        value {
          tensor {
            dtype: DT_INT32
            tensor_shape {
            }
            int_val: 0
          }
        }
      }
      experimental_debug_info {
        original_node_names: "PRE/preprocess_layer/cell_list_nl/GatherV2_7/axis"
      }
    }
    node_def {
      name: "PRE/preprocess_layer/cell_list_nl/GatherV2_7"
      op: "GatherV2"
      input: "PRE/preprocess_layer/cell_list_nl/sub:z:0"
      input: "PRE/preprocess_layer/cell_list_nl/GatherV2_4:output:0"
      input: "PRE/preprocess_layer/cell_list_nl/GatherV2_7/axis:output:0"
      attr {
        key: "Taxis"
        value {
          type: DT_INT32
        }
      }
      attr {
        key: "Tindices"
        value {
          type: DT_INT32
        }
      }
      attr {
        key: "Tparams"
        value {
          type: DT_INT32
        }
      }
      attr {
        key: "_output_shapes"
        value {
          list {
            shape {
              dim {
                size: -1
              }
              dim {
                size: 1
              }
            }
          }
        }
      }
      attr {
        key: "batch_dims"
        value {
          i: 0
        }
      }
      experimental_debug_info {
        original_node_names: "PRE/preprocess_layer/cell_list_nl/GatherV2_7"
      }
    }
    node_def {
      name: "PRE/preprocess_layer/cell_list_nl/GatherNd_7"
      op: "GatherNd"
      input: "PRE/preprocess_layer/cell_list_nl/GatherV2_7:output:0"
      input: "PRE/preprocess_layer/cell_list_nl/Where_4:index:0"
      attr {
        key: "Tindices"
        value {
          type: DT_INT64
        }
      }
      attr {
        key: "Tparams"
        value {
          type: DT_INT32
        }
      }
      attr {
        key: "_output_shapes"
        value {
          list {
            shape {
              dim {
                size: -1
              }
              dim {
                size: 1
              }
            }
          }
        }
      }
      experimental_debug_info {
        original_node_names: "PRE/preprocess_layer/cell_list_nl/GatherNd_7"
      }
    }
    node_def {
      name: "PRE/preprocess_layer/cell_list_nl/GatherV2_8/axis"
      op: "Const"
      attr {
        key: "_output_shapes"
        value {
          list {
            shape {
            }
          }
        }
      }
      attr {
        key: "dtype"
        value {
          type: DT_INT32
        }
      }
      attr {
        key: "value"
        value {
          tensor {
            dtype: DT_INT32
            tensor_shape {
            }
            int_val: 0
          }
        }
      }
      experimental_debug_info {
        original_node_names: "PRE/preprocess_layer/cell_list_nl/GatherV2_8/axis"
      }
    }
    node_def {
      name: "PRE/preprocess_layer/cell_list_nl/GatherV2_8"
      op: "GatherV2"
      input: "PRE/preprocess_layer/cell_list_nl/sub:z:0"
      input: "PRE/preprocess_layer/cell_list_nl/sub_5:z:0"
      input: "PRE/preprocess_layer/cell_list_nl/GatherV2_8/axis:output:0"
      attr {
        key: "Taxis"
        value {
          type: DT_INT32
        }
      }
      attr {
        key: "Tindices"
        value {
          type: DT_INT32
        }
      }
      attr {
        key: "Tparams"
        value {
          type: DT_INT32
        }
      }
      attr {
        key: "_output_shapes"
        value {
          list {
            shape {
              dim {
                size: -1
              }
              dim {
                size: 1
              }
            }
          }
        }
      }
      attr {
        key: "batch_dims"
        value {
          i: 0
        }
      }
      experimental_debug_info {
        original_node_names: "PRE/preprocess_layer/cell_list_nl/GatherV2_8"
      }
    }
    node_def {
      name: "PRE/preprocess_layer/cell_list_nl/GatherNd_8"
      op: "GatherNd"
      input: "PRE/preprocess_layer/cell_list_nl/GatherV2_8:output:0"
      input: "PRE/preprocess_layer/cell_list_nl/Where_4:index:0"
      attr {
        key: "Tindices"
        value {
          type: DT_INT64
        }
      }
      attr {
        key: "Tparams"
        value {
          type: DT_INT32
        }
      }
      attr {
        key: "_output_shapes"
        value {
          list {
            shape {
              dim {
                size: -1
              }
              dim {
                size: 1
              }
            }
          }
        }
      }
      experimental_debug_info {
        original_node_names: "PRE/preprocess_layer/cell_list_nl/GatherNd_8"
      }
    }
    node_def {
      name: "PRE/preprocess_layer/cell_list_nl/concat_3/axis"
      op: "Const"
      attr {
        key: "_output_shapes"
        value {
          list {
            shape {
            }
          }
        }
      }
      attr {
        key: "dtype"
        value {
          type: DT_INT32
        }
      }
      attr {
        key: "value"
        value {
          tensor {
            dtype: DT_INT32
            tensor_shape {
            }
            int_val: 1
          }
        }
      }
      experimental_debug_info {
        original_node_names: "PRE/preprocess_layer/cell_list_nl/concat_3/axis"
      }
    }
    node_def {
      name: "PRE/preprocess_layer/cell_list_nl/concat_3"
      op: "ConcatV2"
      input: "PRE/preprocess_layer/cell_list_nl/GatherNd_7:output:0"
      input: "PRE/preprocess_layer/cell_list_nl/GatherNd_8:output:0"
      input: "PRE/preprocess_layer/cell_list_nl/concat_3/axis:output:0"
      attr {
        key: "N"
        value {
          i: 2
        }
      }
      attr {
        key: "T"
        value {
          type: DT_INT32
        }
      }
      attr {
        key: "Tidx"
        value {
          type: DT_INT32
        }
      }
      attr {
        key: "_output_shapes"
        value {
          list {
            shape {
              dim {
                size: -1
              }
              dim {
                size: 2
              }
            }
          }
        }
      }
      experimental_debug_info {
        original_node_names: "PRE/preprocess_layer/cell_list_nl/concat_3"
      }
    }
    node_def {
      name: "PRE/preprocess_layer/atomic_onehot/ExpandDims/dim"
      op: "Const"
      attr {
        key: "_output_shapes"
        value {
          list {
            shape {
            }
          }
        }
      }
      attr {
        key: "dtype"
        value {
          type: DT_INT32
        }
      }
      attr {
        key: "value"
        value {
          tensor {
            dtype: DT_INT32
            tensor_shape {
            }
            int_val: 1
          }
        }
      }
      experimental_debug_info {
        original_node_names: "PRE/preprocess_layer/atomic_onehot/ExpandDims/dim"
      }
    }
    node_def {
      name: "PRE/preprocess_layer/atomic_onehot/ExpandDims"
      op: "ExpandDims"
      input: "PRE/preprocess_layer/Reshape:output:0"
      input: "PRE/preprocess_layer/atomic_onehot/ExpandDims/dim:output:0"
      attr {
        key: "T"
        value {
          type: DT_INT32
        }
      }
      attr {
        key: "Tdim"
        value {
          type: DT_INT32
        }
      }
      attr {
        key: "_output_shapes"
        value {
          list {
            shape {
              dim {
                size: -1
              }
              dim {
                size: 1
              }
            }
          }
        }
      }
      experimental_debug_info {
        original_node_names: "PRE/preprocess_layer/atomic_onehot/ExpandDims"
      }
    }
    node_def {
      name: "PRE/preprocess_layer/atomic_onehot/ExpandDims_1/input"
      op: "Const"
      attr {
        key: "_output_shapes"
        value {
          list {
            shape {
              dim {
                size: 6
              }
            }
          }
        }
      }
      attr {
        key: "dtype"
        value {
          type: DT_INT32
        }
      }
      attr {
        key: "value"
        value {
          tensor {
            dtype: DT_INT32
            tensor_shape {
              dim {
                size: 6
              }
            }
            tensor_content: "\001\000\000\000\006\000\000\000\007\000\000\000\010\000\000\000\020\000\000\000\021\000\000\000"
          }
        }
      }
      experimental_debug_info {
        original_node_names: "PRE/preprocess_layer/atomic_onehot/ExpandDims_1/input"
      }
    }
    node_def {
      name: "PRE/preprocess_layer/atomic_onehot/ExpandDims_1/dim"
      op: "Const"
      attr {
        key: "_output_shapes"
        value {
          list {
            shape {
            }
          }
        }
      }
      attr {
        key: "dtype"
        value {
          type: DT_INT32
        }
      }
      attr {
        key: "value"
        value {
          tensor {
            dtype: DT_INT32
            tensor_shape {
            }
            int_val: 0
          }
        }
      }
      experimental_debug_info {
        original_node_names: "PRE/preprocess_layer/atomic_onehot/ExpandDims_1/dim"
      }
    }
    node_def {
      name: "PRE/preprocess_layer/atomic_onehot/ExpandDims_1"
      op: "ExpandDims"
      input: "PRE/preprocess_layer/atomic_onehot/ExpandDims_1/input:output:0"
      input: "PRE/preprocess_layer/atomic_onehot/ExpandDims_1/dim:output:0"
      attr {
        key: "T"
        value {
          type: DT_INT32
        }
      }
      attr {
        key: "Tdim"
        value {
          type: DT_INT32
        }
      }
      attr {
        key: "_output_shapes"
        value {
          list {
            shape {
              dim {
                size: 1
              }
              dim {
                size: 6
              }
            }
          }
        }
      }
      experimental_debug_info {
        original_node_names: "PRE/preprocess_layer/atomic_onehot/ExpandDims_1"
      }
    }
    node_def {
      name: "PRE/preprocess_layer/atomic_onehot/Equal"
      op: "Equal"
      input: "PRE/preprocess_layer/atomic_onehot/ExpandDims:output:0"
      input: "PRE/preprocess_layer/atomic_onehot/ExpandDims_1:output:0"
      attr {
        key: "T"
        value {
          type: DT_INT32
        }
      }
      attr {
        key: "_output_shapes"
        value {
          list {
            shape {
              dim {
                size: -1
              }
              dim {
                size: 6
              }
            }
          }
        }
      }
      attr {
        key: "incompatible_shape_error"
        value {
          b: true
        }
      }
      experimental_debug_info {
        original_node_names: "PRE/preprocess_layer/atomic_onehot/Equal"
      }
    }
    node_def {
      name: "PRE/preprocess_layer/Cast"
      op: "Cast"
      input: "PRE/preprocess_layer/atomic_onehot/Equal:z:0"
      attr {
        key: "DstT"
        value {
          type: DT_FLOAT
        }
      }
      attr {
        key: "SrcT"
        value {
          type: DT_BOOL
        }
      }
      attr {
        key: "Truncate"
        value {
          b: false
        }
      }
      attr {
        key: "_output_shapes"
        value {
          list {
            shape {
              dim {
                size: -1
              }
              dim {
                size: 6
              }
            }
          }
        }
      }
      experimental_debug_info {
        original_node_names: "PRE/preprocess_layer/Cast"
      }
    }
    node_def {
      name: "Identity"
      op: "Identity"
      input: "args_0"
      attr {
        key: "T"
        value {
          type: DT_FLOAT
        }
      }
      attr {
        key: "_output_shapes"
        value {
          list {
            shape {
              dim {
                size: -1
              }
              dim {
                size: 3
              }
            }
          }
        }
      }
      experimental_debug_info {
        original_node_names: "Identity"
      }
    }
    node_def {
      name: "Identity_1"
      op: "Identity"
      input: "PRE/preprocess_layer/cell_list_nl/GatherNd_6:output:0"
      attr {
        key: "T"
        value {
          type: DT_FLOAT
        }
      }
      attr {
        key: "_output_shapes"
        value {
          list {
            shape {
              dim {
                size: -1
              }
              dim {
                size: 3
              }
            }
          }
        }
      }
      experimental_debug_info {
        original_node_names: "Identity_1"
      }
    }
    node_def {
      name: "Identity_2"
      op: "Identity"
      input: "PRE/preprocess_layer/cell_list_nl/GatherNd_5:output:0"
      attr {
        key: "T"
        value {
          type: DT_FLOAT
        }
      }
      attr {
        key: "_output_shapes"
        value {
          list {
            shape {
              dim {
                size: -1
              }
            }
          }
        }
      }
      experimental_debug_info {
        original_node_names: "Identity_2"
      }
    }
    node_def {
      name: "Identity_3"
      op: "Identity"
      input: "PRE/preprocess_layer/Reshape:output:0"
      attr {
        key: "T"
        value {
          type: DT_INT32
        }
      }
      attr {
        key: "_output_shapes"
        value {
          list {
            shape {
              dim {
                size: -1
              }
            }
          }
        }
      }
      experimental_debug_info {
        original_node_names: "Identity_3"
      }
    }
    node_def {
      name: "Identity_4"
      op: "Identity"
      input: "args_2"
      attr {
        key: "T"
        value {
          type: DT_INT32
        }
      }
      attr {
        key: "_output_shapes"
        value {
          list {
            shape {
              dim {
                size: -1
              }
              dim {
                size: 1
              }
            }
          }
        }
      }
      experimental_debug_info {
        original_node_names: "Identity_4"
      }
    }
    node_def {
      name: "Identity_5"
      op: "Identity"
      input: "PRE/preprocess_layer/cell_list_nl/concat_3:output:0"
      attr {
        key: "T"
        value {
          type: DT_INT32
        }
      }
      attr {
        key: "_output_shapes"
        value {
          list {
            shape {
              dim {
                size: -1
              }
              dim {
                size: 2
              }
            }
          }
        }
      }
      experimental_debug_info {
        original_node_names: "Identity_5"
      }
    }
    node_def {
      name: "Identity_6"
      op: "Identity"
      input: "PRE/preprocess_layer/Cast:y:0"
      attr {
        key: "T"
        value {
          type: DT_FLOAT
        }
      }
      attr {
        key: "_output_shapes"
        value {
          list {
            shape {
              dim {
                size: -1
              }
              dim {
                size: 6
              }
            }
          }
        }
      }
      experimental_debug_info {
        original_node_names: "Identity_6"
      }
    }
    node_def {
      name: "Identity_7"
      op: "Identity"
      input: "args_3"
      attr {
        key: "T"
        value {
          type: DT_FLOAT
        }
      }
      attr {
        key: "_output_shapes"
        value {
          list {
            shape {
              dim {
                size: -1
              }
              dim {
                size: 3
              }
              dim {
                size: 3
              }
            }
          }
        }
      }
      experimental_debug_info {
        original_node_names: "Identity_7"
      }
    }
    ret {
      key: "identity"
      value: "Identity:output:0"
    }
    ret {
      key: "identity_1"
      value: "Identity_1:output:0"
    }
    ret {
      key: "identity_2"
      value: "Identity_2:output:0"
    }
    ret {
      key: "identity_3"
      value: "Identity_3:output:0"
    }
    ret {
      key: "identity_4"
      value: "Identity_4:output:0"
    }
    ret {
      key: "identity_5"
      value: "Identity_5:output:0"
    }
    ret {
      key: "identity_6"
      value: "Identity_6:output:0"
    }
    ret {
      key: "identity_7"
      value: "Identity_7:output:0"
    }
    attr {
      key: "_input_shapes"
      value {
        list {
          shape {
            dim {
              size: -1
            }
            dim {
              size: 3
            }
          }
          shape {
            dim {
              size: -1
            }
          }
          shape {
            dim {
              size: -1
            }
            dim {
              size: 1
            }
          }
          shape {
            dim {
              size: -1
            }
            dim {
              size: 3
            }
            dim {
              size: 3
            }
          }
        }
      }
    }
    attr {
      key: "_tf_data_function"
      value {
        b: true
      }
    }
    arg_attr {
      value {
        attr {
          key: "_output_shapes"
          value {
            list {
              shape {
                dim {
                  size: -1
                }
                dim {
                  size: 3
                }
              }
            }
          }
        }
        attr {
          key: "_user_specified_name"
          value {
            s: "args_0"
          }
        }
      }
    }
    arg_attr {
      key: 1
      value {
        attr {
          key: "_output_shapes"
          value {
            list {
              shape {
                dim {
                  size: -1
                }
              }
            }
          }
        }
        attr {
          key: "_user_specified_name"
          value {
            s: "args_1"
          }
        }
      }
    }
    arg_attr {
      key: 2
      value {
        attr {
          key: "_output_shapes"
          value {
            list {
              shape {
                dim {
                  size: -1
                }
                dim {
                  size: 1
                }
              }
            }
          }
        }
        attr {
          key: "_user_specified_name"
          value {
            s: "args_2"
          }
        }
      }
    }
    arg_attr {
      key: 3
      value {
        attr {
          key: "_output_shapes"
          value {
            list {
              shape {
                dim {
                  size: -1
                }
                dim {
                  size: 3
                }
                dim {
                  size: 3
                }
              }
            }
          }
        }
        attr {
          key: "_user_specified_name"
          value {
            s: "args_3"
          }
        }
      }
    }
  }
  function {
    signature {
      name: "__inference_Dataset_flat_map_flat_map_fn_72"
      input_arg {
        name: "args_0"
        type: DT_INT32
      }
      output_arg {
        name: "identity"
        type: DT_VARIANT
      }
      is_stateful: true
      control_output: "GeneratorDataset"
    }
    node_def {
      name: "GeneratorDataset"
      op: "GeneratorDataset"
      input: "args_0"
      attr {
        key: "Tfinalize_func_args"
        value {
          list {
          }
        }
      }
      attr {
        key: "Tinit_func_args"
        value {
          list {
            type: DT_INT32
          }
        }
      }
      attr {
        key: "Tnext_func_args"
        value {
          list {
          }
        }
      }
      attr {
        key: "_output_shapes"
        value {
          list {
            shape {
            }
          }
        }
      }
      attr {
        key: "finalize_func"
        value {
          func {
            name: "__inference_Dataset_from_generator_finalize_fn_69"
            attr {
              key: "_tf_data_function"
              value {
                b: true
              }
            }
          }
        }
      }
      attr {
        key: "init_func"
        value {
          func {
            name: "__inference_Dataset_from_generator_get_iterator_id_fn_55"
            attr {
              key: "_tf_data_function"
              value {
                b: true
              }
            }
          }
        }
      }
      attr {
        key: "next_func"
        value {
          func {
            name: "__inference_Dataset_from_generator_generator_next_fn_64"
            attr {
              key: "_tf_data_function"
              value {
                b: true
              }
            }
          }
        }
      }
      attr {
        key: "output_shapes"
        value {
          list {
            shape {
              dim {
                size: -1
              }
              dim {
                size: 3
              }
            }
            shape {
              dim {
                size: -1
              }
            }
            shape {
              dim {
                size: 3
              }
              dim {
                size: 3
              }
            }
          }
        }
      }
      attr {
        key: "output_types"
        value {
          list {
            type: DT_FLOAT
            type: DT_INT32
            type: DT_FLOAT
          }
        }
      }
      experimental_debug_info {
        original_node_names: "GeneratorDataset"
      }
    }
    node_def {
      name: "Identity"
      op: "Identity"
      input: "GeneratorDataset:handle:0"
      input: "^GeneratorDataset"
      attr {
        key: "T"
        value {
          type: DT_VARIANT
        }
      }
      attr {
        key: "_output_shapes"
        value {
          list {
            shape {
            }
          }
        }
      }
      experimental_debug_info {
        original_node_names: "Identity"
      }
    }
    ret {
      key: "identity"
      value: "Identity:output:0"
    }
    attr {
      key: "_input_shapes"
      value {
        list {
          shape {
          }
        }
      }
    }
    attr {
      key: "_tf_data_function"
      value {
        b: true
      }
    }
    control_ret {
      key: "GeneratorDataset"
      value: "GeneratorDataset"
    }
    arg_attr {
      value {
        attr {
          key: "_output_shapes"
          value {
            list {
              shape {
              }
            }
          }
        }
        attr {
          key: "_user_specified_name"
          value {
            s: "args_0"
          }
        }
      }
    }
  }
  function {
    signature {
      name: "__inference_Dataset_from_generator_finalize_fn_69"
      input_arg {
        name: "args_0"
        type: DT_INT64
      }
      output_arg {
        name: "identity"
        type: DT_INT64
      }
      is_stateful: true
      control_output: "PyFunc"
    }
    node_def {
      name: "PyFunc"
      op: "PyFunc"
      input: "args_0"
      attr {
        key: "Tin"
        value {
          list {
            type: DT_INT64
          }
        }
      }
      attr {
        key: "Tout"
        value {
          list {
            type: DT_INT64
          }
        }
      }
      attr {
        key: "_output_shapes"
        value {
          list {
            shape {
              unknown_rank: true
            }
          }
        }
      }
      attr {
        key: "token"
        value {
          s: "pyfunc_5"
        }
      }
      experimental_debug_info {
        original_node_names: "PyFunc"
      }
    }
    node_def {
      name: "Identity"
      op: "Identity"
      input: "PyFunc:output:0"
      input: "^PyFunc"
      attr {
        key: "T"
        value {
          type: DT_INT64
        }
      }
      attr {
        key: "_output_shapes"
        value {
          list {
            shape {
              unknown_rank: true
            }
          }
        }
      }
      experimental_debug_info {
        original_node_names: "Identity"
      }
    }
    ret {
      key: "identity"
      value: "Identity:output:0"
    }
    attr {
      key: "_input_shapes"
      value {
        list {
          shape {
            unknown_rank: true
          }
        }
      }
    }
    attr {
      key: "_tf_data_function"
      value {
        b: true
      }
    }
    control_ret {
      key: "PyFunc"
      value: "PyFunc"
    }
    arg_attr {
      value {
        attr {
          key: "_output_shapes"
          value {
            list {
              shape {
                unknown_rank: true
              }
            }
          }
        }
        attr {
          key: "_user_specified_name"
          value {
            s: "args_0"
          }
        }
      }
    }
  }
  function {
    signature {
      name: "__inference_Dataset_flat_map_flat_map_fn_45"
      input_arg {
        name: "args_0"
        type: DT_INT32
      }
      output_arg {
        name: "identity"
        type: DT_VARIANT
      }
      is_stateful: true
      control_output: "GeneratorDataset"
    }
    node_def {
      name: "GeneratorDataset"
      op: "GeneratorDataset"
      input: "args_0"
      attr {
        key: "Tfinalize_func_args"
        value {
          list {
          }
        }
      }
      attr {
        key: "Tinit_func_args"
        value {
          list {
            type: DT_INT32
          }
        }
      }
      attr {
        key: "Tnext_func_args"
        value {
          list {
          }
        }
      }
      attr {
        key: "_output_shapes"
        value {
          list {
            shape {
            }
          }
        }
      }
      attr {
        key: "finalize_func"
        value {
          func {
            name: "__inference_Dataset_from_generator_finalize_fn_42"
            attr {
              key: "_tf_data_function"
              value {
                b: true
              }
            }
          }
        }
      }
      attr {
        key: "init_func"
        value {
          func {
            name: "__inference_Dataset_from_generator_get_iterator_id_fn_28"
            attr {
              key: "_tf_data_function"
              value {
                b: true
              }
            }
          }
        }
      }
      attr {
        key: "next_func"
        value {
          func {
            name: "__inference_Dataset_from_generator_generator_next_fn_37"
            attr {
              key: "_tf_data_function"
              value {
                b: true
              }
            }
          }
        }
      }
      attr {
        key: "output_shapes"
        value {
          list {
            shape {
              dim {
                size: -1
              }
              dim {
                size: 3
              }
            }
            shape {
              dim {
                size: -1
              }
            }
            shape {
              dim {
                size: 3
              }
              dim {
                size: 3
              }
            }
          }
        }
      }
      attr {
        key: "output_types"
        value {
          list {
            type: DT_FLOAT
            type: DT_INT32
            type: DT_FLOAT
          }
        }
      }
      experimental_debug_info {
        original_node_names: "GeneratorDataset"
      }
    }
    node_def {
      name: "Identity"
      op: "Identity"
      input: "GeneratorDataset:handle:0"
      input: "^GeneratorDataset"
      attr {
        key: "T"
        value {
          type: DT_VARIANT
        }
      }
      attr {
        key: "_output_shapes"
        value {
          list {
            shape {
            }
          }
        }
      }
      experimental_debug_info {
        original_node_names: "Identity"
      }
    }
    ret {
      key: "identity"
      value: "Identity:output:0"
    }
    attr {
      key: "_input_shapes"
      value {
        list {
          shape {
          }
        }
      }
    }
    attr {
      key: "_tf_data_function"
      value {
        b: true
      }
    }
    control_ret {
      key: "GeneratorDataset"
      value: "GeneratorDataset"
    }
    arg_attr {
      value {
        attr {
          key: "_output_shapes"
          value {
            list {
              shape {
              }
            }
          }
        }
        attr {
          key: "_user_specified_name"
          value {
            s: "args_0"
          }
        }
      }
    }
  }
  function {
    signature {
      name: "global_step_cond_true_6"
      input_arg {
        name: "read_readvariableop_global_step"
        type: DT_RESOURCE
        handle_data {
          dtype: DT_INT64
          shape {
          }
        }
      }
      input_arg {
        name: "placeholder"
        type: DT_INT64
      }
      output_arg {
        name: "identity"
        type: DT_INT64
      }
      is_stateful: true
    }
    node_def {
      name: "Read/ReadVariableOp"
      op: "ReadVariableOp"
      input: "read_readvariableop_global_step"
      attr {
        key: "_output_shapes"
        value {
          list {
            shape {
            }
          }
        }
      }
      attr {
        key: "dtype"
        value {
          type: DT_INT64
        }
      }
      experimental_debug_info {
        original_node_names: "Read/ReadVariableOp"
      }
    }
    node_def {
      name: "Identity"
      op: "Identity"
      input: "Read/ReadVariableOp:value:0"
      attr {
        key: "T"
        value {
          type: DT_INT64
        }
      }
      attr {
        key: "_output_shapes"
        value {
          list {
            shape {
            }
          }
        }
      }
      experimental_debug_info {
        original_node_names: "Identity"
      }
    }
    ret {
      key: "identity"
      value: "Identity:output:0"
    }
    attr {
      key: "_input_shapes"
      value {
        list {
          shape {
          }
          shape {
          }
        }
      }
    }
    arg_attr {
      key: 1
      value {
        attr {
          key: "_output_shapes"
          value {
            list {
              shape {
              }
            }
          }
        }
      }
    }
  }
  function {
    signature {
      name: "__inference_Dataset_from_generator_get_iterator_id_fn_28"
      input_arg {
        name: "args_0"
        type: DT_INT32
      }
      output_arg {
        name: "identity"
        type: DT_INT64
      }
      is_stateful: true
      control_output: "PyFunc"
    }
    node_def {
      name: "PyFunc"
      op: "PyFunc"
      attr {
        key: "Tin"
        value {
          list {
          }
        }
      }
      attr {
        key: "Tout"
        value {
          list {
            type: DT_INT64
          }
        }
      }
      attr {
        key: "_output_shapes"
        value {
          list {
            shape {
              unknown_rank: true
            }
          }
        }
      }
      attr {
        key: "token"
        value {
          s: "pyfunc_0"
        }
      }
      experimental_debug_info {
        original_node_names: "PyFunc"
      }
    }
    node_def {
      name: "Identity"
      op: "Identity"
      input: "PyFunc:output:0"
      input: "^PyFunc"
      attr {
        key: "T"
        value {
          type: DT_INT64
        }
      }
      attr {
        key: "_output_shapes"
        value {
          list {
            shape {
              unknown_rank: true
            }
          }
        }
      }
      experimental_debug_info {
        original_node_names: "Identity"
      }
    }
    ret {
      key: "identity"
      value: "Identity:output:0"
    }
    attr {
      key: "_input_shapes"
      value {
        list {
          shape {
          }
        }
      }
    }
    attr {
      key: "_tf_data_function"
      value {
        b: true
      }
    }
    control_ret {
      key: "PyFunc"
      value: "PyFunc"
    }
    arg_attr {
      value {
        attr {
          key: "_output_shapes"
          value {
            list {
              shape {
              }
            }
          }
        }
        attr {
          key: "_user_specified_name"
          value {
            s: "args_0"
          }
        }
      }
    }
  }
  function {
    signature {
      name: "__inference_Dataset_from_generator_get_iterator_id_fn_55"
      input_arg {
        name: "args_0"
        type: DT_INT32
      }
      output_arg {
        name: "identity"
        type: DT_INT64
      }
      is_stateful: true
      control_output: "PyFunc"
    }
    node_def {
      name: "PyFunc"
      op: "PyFunc"
      attr {
        key: "Tin"
        value {
          list {
          }
        }
      }
      attr {
        key: "Tout"
        value {
          list {
            type: DT_INT64
          }
        }
      }
      attr {
        key: "_output_shapes"
        value {
          list {
            shape {
              unknown_rank: true
            }
          }
        }
      }
      attr {
        key: "token"
        value {
          s: "pyfunc_3"
        }
      }
      experimental_debug_info {
        original_node_names: "PyFunc"
      }
    }
    node_def {
      name: "Identity"
      op: "Identity"
      input: "PyFunc:output:0"
      input: "^PyFunc"
      attr {
        key: "T"
        value {
          type: DT_INT64
        }
      }
      attr {
        key: "_output_shapes"
        value {
          list {
            shape {
              unknown_rank: true
            }
          }
        }
      }
      experimental_debug_info {
        original_node_names: "Identity"
      }
    }
    ret {
      key: "identity"
      value: "Identity:output:0"
    }
    attr {
      key: "_input_shapes"
      value {
        list {
          shape {
          }
        }
      }
    }
    attr {
      key: "_tf_data_function"
      value {
        b: true
      }
    }
    control_ret {
      key: "PyFunc"
      value: "PyFunc"
    }
    arg_attr {
      value {
        attr {
          key: "_output_shapes"
          value {
            list {
              shape {
              }
            }
          }
        }
        attr {
          key: "_user_specified_name"
          value {
            s: "args_0"
          }
        }
      }
    }
  }
  function {
    signature {
      name: "__inference_Dataset_from_generator_generator_next_fn_64"
      input_arg {
        name: "args_0"
        type: DT_INT64
      }
      output_arg {
        name: "identity"
        type: DT_FLOAT
      }
      output_arg {
        name: "identity_1"
        type: DT_INT32
      }
      output_arg {
        name: "identity_2"
        type: DT_FLOAT
      }
      is_stateful: true
      control_output: "PyFunc"
    }
    node_def {
      name: "PyFunc"
      op: "PyFunc"
      input: "args_0"
      attr {
        key: "Tin"
        value {
          list {
            type: DT_INT64
          }
        }
      }
      attr {
        key: "Tout"
        value {
          list {
            type: DT_FLOAT
            type: DT_INT32
            type: DT_FLOAT
          }
        }
      }
      attr {
        key: "_output_shapes"
        value {
          list {
            shape {
              dim {
                size: -1
              }
              dim {
                size: 3
              }
            }
            shape {
              dim {
                size: -1
              }
            }
            shape {
              dim {
                size: 3
              }
              dim {
                size: 3
              }
            }
          }
        }
      }
      attr {
        key: "token"
        value {
          s: "pyfunc_4"
        }
      }
      experimental_debug_info {
        original_node_names: "PyFunc"
      }
    }
    node_def {
      name: "Identity"
      op: "Identity"
      input: "PyFunc:output:0"
      input: "^PyFunc"
      attr {
        key: "T"
        value {
          type: DT_FLOAT
        }
      }
      attr {
        key: "_output_shapes"
        value {
          list {
            shape {
              dim {
                size: -1
              }
              dim {
                size: 3
              }
            }
          }
        }
      }
      experimental_debug_info {
        original_node_names: "Identity"
      }
    }
    node_def {
      name: "Identity_1"
      op: "Identity"
      input: "PyFunc:output:1"
      input: "^PyFunc"
      attr {
        key: "T"
        value {
          type: DT_INT32
        }
      }
      attr {
        key: "_output_shapes"
        value {
          list {
            shape {
              dim {
                size: -1
              }
            }
          }
        }
      }
      experimental_debug_info {
        original_node_names: "Identity_1"
      }
    }
    node_def {
      name: "Identity_2"
      op: "Identity"
      input: "PyFunc:output:2"
      input: "^PyFunc"
      attr {
        key: "T"
        value {
          type: DT_FLOAT
        }
      }
      attr {
        key: "_output_shapes"
        value {
          list {
            shape {
              dim {
                size: 3
              }
              dim {
                size: 3
              }
            }
          }
        }
      }
      experimental_debug_info {
        original_node_names: "Identity_2"
      }
    }
    ret {
      key: "identity"
      value: "Identity:output:0"
    }
    ret {
      key: "identity_1"
      value: "Identity_1:output:0"
    }
    ret {
      key: "identity_2"
      value: "Identity_2:output:0"
    }
    attr {
      key: "_input_shapes"
      value {
        list {
          shape {
            unknown_rank: true
          }
        }
      }
    }
    attr {
      key: "_tf_data_function"
      value {
        b: true
      }
    }
    control_ret {
      key: "PyFunc"
      value: "PyFunc"
    }
    arg_attr {
      value {
        attr {
          key: "_output_shapes"
          value {
            list {
              shape {
                unknown_rank: true
              }
            }
          }
        }
        attr {
          key: "_user_specified_name"
          value {
            s: "args_0"
          }
        }
      }
    }
  }
}
versions {
  producer: 716
  min_consumer: 12
}
